graphinvent/best_model_noheavyatoms.pt (torch, 243895 bytes, 20 tensors)

gcn.weight f4 [30, 30]
00000000: de20 15be 7493 f7bd d334 373e d03a b0b8
00000010: 7b10 00be b7a3 383e 7f56 9bbd c677 1e3e
00000020: 1d9e a4bd e2ef 1a3e 6f5f 99bd 1e39 373e
00000030: afec 07be 0dfa 63bd 960e 70bd a45c 0cbe
00000040: 1b61 fe3c cb37 353e ae22 343d e593 8c3d
00000050: be34 2abd f090 1dbe 2151 30be 75d4 1e3c
00000060: 1df1 293e 54fd cbba 6ad3 e03b d2d8 4dbd
00000070: 6cc9 ac3d f274 28be 9a8b 7bbd ecbb e43a
00000080: c116 ec3d 1c39 19be df78 e43c 9784 c4bc
00000090: 1824 aabd 0848 eabc dee8 29be 87aa 513c
000000a0: 3e00 df3d ae77 2a3e 1705 14bc 4dca 82bd
000000b0: 6e89 8c3d 1305 cf3d c222 023e 1399 2c3d
000000c0: c527 5b3c ee98 2a3d c7f8 15be 690e ec3b
000000d0: db0b 003e 3621 b53d 94ba 2c3d 021c dc3c
000000e0: b9a6 943d fc51 053e c11a 9a3d 6eaf cf3d
000000f0: 4ee9 09bd 460c 9d3d 1e0a d2bd 027f d93c
00000100: 3a08 a6bd 447e 373e 8462 473d 9ebc c73d
00000110: c2d6 ab3d 6c69 853d 8e2d 27be e70e 2fbe
00000120: 7f37 eebd f8b3 6ebd 4221 303e 806d 143e
00000130: d781 183e 85cb 243e d962 5cbd 3c98 313e
00000140: 7c75 f6bd d238 363e 90f0 f6bd 7ab9 a7bc
00000150: 8fb4 a33d aca8 f6bd a5b1 3ebd cec9 e63d
00000160: ecfb 8bbd 2912 203e fd75 103e 7667 043e
00000170: cff3 46bc eeb3 db3d 7c52 84bd ffbe 943d
00000180: 19b8 04be 0ec5 bb3d 5314 de3b 4b0c 833d
00000190: b54a d3bd 5790 35be e61d 343e 6ceb a7bd
000001a0: 94b7 e5bd 3e2c a33a 0f09 cf3d 72c6 6f3c
000001b0: 74a9 cdbd f470 593c 3160 933d cd67 ebbd
000001c0: c104 f53d ddc3 bd3d d4ef 103e 57ab c7bd
000001d0: aee5 2dbd 3d2a 363e 8e52 2fbd 7c0f 94bd
000001e0: 4373 283e e579 dc3b 1894 10be dbbf bcbd
000001f0: a684 213e 1a8e c2bc 886c ed3d 94b0 293e
00000200: 3b37 1a3e 59f1 eb3d 5db2 e8bd 1efe e4bd
00000210: 8683 113d 12ca e73c 5cb2 9d3d 07a8 18be
00000220: ed70 033d 3162 0abe 4ead a83d 9d30 9cbd
00000230: a71b d53d b089 b2bd 6d67 25bd 7d79 0abe
00000240: fa81 373e 4673 62bd 4b41 7ebd af6e 29be
00000250: 4ed1 1bbe 237b 74bd 84a6 893d cbef 8ebc
00000260: 4adb 99bd 7565 0c3e d665 f5bd 6844 85bc
00000270: 2436 14be c77d 373e 411c c63d 2ec6 08be
00000280: fa68 ddbc 2a7c c23d 616c 30be 0daf acbc
00000290: 19bd a5bd 59ec d23d 87ab ba3d 927a e03d
000002a0: 276f 333e 8e06 40bd ac9f 8d3d 16f3 ecbc
000002b0: 1ab1 6abd 3aab 0fbe 3b2f 98bc 98e0 ee3d
000002c0: dfba 5cbd 03ce 9ebd 5977 0dbe 9a31 563c
000002d0: ed9b 593d 84d3 d43d d8b1 92bd 60ed f5bc
000002e0: f474 fbbd d413 36bc 7053 1fbb fdd5 02bd
000002f0: 0edb 89bd 1d62 8e3d 4797 e33d 8607 63bd
00000300: b890 a1bd f98c 203e 6f87 e13b 0635 4bbd
00000310: 9c55 403c c811 91ba 6d09 733d a3e3 a23d
00000320: bc5e edbd f7c7 d73c 5a2b 133e 2065 c3bc
00000330: f805 313e bbc7 083e ea5c 643d 79ba 083e
00000340: e638 333e e75e e4bd 3530 8f3d 8235 e23d
00000350: cad8 ae3d 5c57 173d 606e a9bc d4ae ad3d
00000360: 319c 173e 8699 063e 4743 22be f407 37bd
00000370: 73f3 d63d 1979 273d 162f 3a3e 5381 803d
00000380: f35e 223e ea29 f4bb 7e97 063c 2d4a 003e
00000390: 022a 233e 21be 383d 6398 1bbe f40e e3bd
000003a0: 54e4 523d e1c7 0b3d ce1e 8bbd 0ced da3d
000003b0: 9d4d 8f3d 5179 963d 1cc6 2e3e 1fd2 943a
000003c0: 05a1 14be bf14 f73d 4707 cfbc d578 bcbc
000003d0: d6e0 06be b6ff ea3d 37df 37be f139 1abc
000003e0: 64d4 2fbe 8f16 f7bd bc95 c63c 174d 193e
000003f0: 5371 98bc 46f2 e43d bd53 323e 53e7 033d
-0.14563319 -0.12088671 0.17891245 -8.403289e-05 -0.12506287 0.18031202 -0.07584857 0.15475377
-0.0803797 0.1513057 -0.07488906 0.17892882 -0.13273881 -0.05565839 -0.05860766 -0.13707215
0.031052163 0.17697065 0.043978386 0.06864146 -0.041554205 -0.1538732 -0.17218448 0.009694208
0.16595884 -0.0015563169 0.00686114 -0.050255604 0.08436856 -0.16450861 -0.06141243 0.0017451025
0.115277775 -0.14963192 0.027889667 -0.023989005 -0.083076656 -0.0285988 -0.16592738 0.012797005
0.10888718 0.16647217 -0.009034417 -0.06386242 0.0686215 0.1010839 0.12708572 0.04213817
0.013376181 0.04164975 -0.14645682 0.0072038663 0.12504523 0.08844225 0.042170122 0.026868824
0.07258362 0.13019556 0.07524634 0.101408824 -0.033669762 0.076683566 -0.10255836 0.02654982
-0.08107038 0.1791926 0.048677936 0.09752773 0.08390571 0.06514248 -0.16325971 -0.17095529
-0.11631679 -0.0582771 0.17200187 0.14494896 0.1489328 0.16093262 -0.053805206 0.17343229
-0.12034127 0.17795113 -0.120576024 -0.020474184 0.07993423 -0.1204389 -0.046556134 0.1126896
-0.0683516 0.15631928 0.14107509 0.12930092 -0.012143089 0.10727678 -0.06461045 0.07262992
-0.12960853 0.091684446 0.006777325 0.06398829 -0.103169836 -0.17730843 0.1758953 -0.081992
-0.112166554 0.0012449098 0.1010915 0.014634715 -0.10042086 0.013271559 0.071960814 -0.11494408
0.11963797 0.092658736 0.14153987 -0.09749477 -0.042455368 0.1778955 -0.04280334 -0.07229516
0.16450219 0.006728398 -0.14118993 -0.09216281 0.15773258 -0.0237494 0.11592966 0.16571265
0.15060131 0.11520643 -0.11362145 -0.111812815 0.03552582 0.028294597 0.07700035 -0.14907847
0.032090116 -0.1351402 0.0823618 -0.0762646 0.10405665 -0.08717668 -0.040381838 -0.13522907
0.17920676 -0.055285715 -0.062073987 -0.16546129 -0.15216562 -0.059687745 0.067212135 -0.017448327
-0.07512529 0.13710578 -0.11982314 -0.01626797 -0.14473778 0.17919074 0.09673358 -0.1335685
-0.027027596 0.09496339 -0.17228843 -0.021079564 -0.08092708 0.10298986 0.091147475 0.109608784
0.1752287 -0.04688125 0.069152206 -0.028924506 -0.057297803 -0.14030161 -0.018577209 0.116639316
-0.05388915 -0.07754137 -0.13815059 0.013073349 0.053127218 0.10391906 -0.07162827 -0.030020416
-0.122781664 -0.011113126 -0.0024311207 -0.031942356 -0.067312345 0.069523074 0.11112838 -0.055427097
-0.07888931 0.15678777 0.0068826 -0.049611114 0.011739161 -0.0011067921 0.05933516 0.079535745
-0.11590335 0.026340468 0.14372006 -0.023851931 0.17287433 0.13357441 0.055752672 0.13352384
0.17502174 -0.11150914 0.06991617 0.11045362 0.08537443 0.036948547 -0.020682514 0.084806114
0.14805676 0.13144502 -0.15845977 -0.04468532 0.10495653 0.040886972 0.18182024 0.06274667
0.15856533 -0.0074512856 0.0082148295 0.12528296 0.15933993 0.045103196 -0.1519485 -0.110868365
0.051487282 0.034126166 -0.06792985 0.10689744 0.069972254 0.07347358 0.1706776 0.0011354125
-0.14514549 0.12064504 -0.025272025 -0.023006836 -0.13171706 0.11474554 -0.17956243 -0.009413228
-0.17170864 -0.120648496 0.02424132 0.14970814 -0.018608725 0.111790225 0.17414756 0.03220303

gcn.bias f4 [30]
00000000: fcff c7bd 9f83 08bd d32b 99bd a113 e9bd
00000010: 06d1 333e eb9a 07be 5777 d8bd d810 d4bd
00000020: e717 353e 4ca1 27be f728 2d3d b2e1 b73c
00000030: aba7 e8bd e79f 66bd 606f b93d 4b15 083e
00000040: 81bf 8b3c d468 a4bd 65db bebd 8e73 4b3d
00000050: 895d 893d 6fca 35bc 664a e13d 82d3 16be
00000060: d7a2 3dbb 4f67 093e 0153 edbd a8c9 db3d
00000070: 3159 6d3d 7060 1c3e
-0.09765622 -0.03332865 -0.07479062 -0.11380697 0.17560205 -0.1324269 -0.10569637 -0.10354775
0.176849 -0.16370124 0.042275395 0.022446487 -0.11360105 -0.05630484 0.09054446 0.13289373
0.01705909 -0.08027807 -0.0931919 0.04967075 0.067072935 -0.011095627 0.110005185 -0.14729121
-0.0028936171 0.13418315 -0.11588097 0.10731822 0.057946388 0.15271163

fc1.weight f4 [256, 30]
00000000: a90d 81be 51e8 72bd 7d7d 363d 3892 9d3d
00000010: 4f9c 29be 3df7 8fbd 0a33 f63d 1fa4 12bd
00000020: a2a1 90bd 8d24 b93d 1d4a c8bd 2f99 093e
00000030: ca15 a03c 5819 3f3d 3529 513e 64aa c33c
00000040: 3e18 793d c2ec 1cbe ffc2 503e fab9 79be
00000050: 6722 08be 2b8c 2a3c bb87 b3bc c23c 28bc
00000060: 8eb2 5abd 72a5 76be 04ff 1f3e 2547 493e
00000070: 8339 02be 8fac af3e 1879 1c3b 8732 693b
00000080: b5e9 533b 0a6f 2f3b 068d 0c3c ece6 6a3b
00000090: 21e2 9c3c 5349 6c3a dfcc 873b 5014 f33a
000000a0: 954e 4f3c d46f 223b 5de7 abbb 35ca 76ba
000000b0: e250 8bbb 93bf 343a 36ce 3a3b 2e2a 2fbb
000000c0: 5b68 553c 6e16 073b 37f8 b539 76b3 9cb9
000000d0: 7b6f 7d3b e872 5737 8961 40bc 7b0f 863b
000000e0: d287 303b dbeb 3539 6775 4a3b 0f86 98ba
000000f0: 4b50 053d f778 a3bd b86e fdbd 91d9 bdbd
00000100: 3b88 89bd a9a3 493d 3872 f13c 1bbf 973b
00000110: a0f5 203e b053 013e f414 12be ae37 ee3c
00000120: da38 a73b f556 6f3c 1bb4 4dbc 1ea4 523d
00000130: 9f6b af3d 7a57 ac3d db5c 583e 792f f7bd
00000140: f0fc 04be 25db 2ebe 2da7 30bd a871 383b
00000150: 2245 c13c 4b6f 7e3d 94bc 9e39 c701 c6bc
00000160: b215 153e 0ee8 25be c3d5 183c 27ae 52bd
00000170: 17d0 62bc 5821 113c 134d 03bd f0b1 523d
00000180: 1228 a63c f87f b83c 0953 823c 0a41 80bc
00000190: 1f72 4fbc 5c2b ffbc d6fb 6f3b e3c7 21bc
000001a0: e958 babb 9e5b d4bb 9e67 6cbc f2f3 70bd
000001b0: 7337 4bbd ef24 093c f3dc 9b3b b53a 1ebc
000001c0: 1c2d cebc b1a5 0d3b ab7b d13c 785f a2bc
000001d0: ae75 923c 71b9 16bd 232f adbc 5a30 393c
000001e0: 3780 013e e3dd e2bd 60c8 00be ee4b b6bc
000001f0: a65d 06bd 56b3 143e db32 c8bd 10f6 14bd
00000200: 4e92 c9bc 42d1 93bd da7b 343e 891f bdbd
00000210: b73a fdbd f62e eabc 4260 683e f8a1 c03d
00000220: 80c5 23be c0cc 45be f1be de3d 62ff 82bc
00000230: 58a4 e13d 261b 203c 5af1 0bbe 2e60 4bbb
00000240: e35c 8cbd d518 8cbe e363 393e 6b81 3b3e
00000250: 9588 1bbe f73f cd3d 8813 2f3e bf04 883d
00000260: 2f0c 153e e6c1 e83d 17f9 4cbc 6223 ecbd
00000270: bbb3 42bd bcd5 eb3d 6e49 233e c4ec 723c
00000280: 611e 303e 6ea4 83bd a3c1 e03d b0dd e33d
00000290: 5dde 68be 2121 ce3d e9c4 3e3e 1739 73be
000002a0: 0f6c a43d ed61 34be 44c5 e4bc 7fa1 9cbc
000002b0: d04b c73c c802 92b9 1102 7abd c327 6d3d
000002c0: 9b78 21be eacd c83b 03d5 67bd 9a64 193e
000002d0: 17fe f93b 0b84 cf3d c664 debd 832f 073c
000002e0: f58c 6abb 6f1d be3d 016e 70bd 2d18 b63c
000002f0: df33 5a3d 95d0 da3c a610 8f3d 7a76 fd3d
00000300: a903 29be ee9d 06be 512b 1c3d 544a 363e
00000310: be7d 463e c535 3cbe fae5 c23d 4dd6 c6bd
00000320: 1ea8 523d b7e0 4b3c 88f7 893d decc a33c
00000330: 6299 dabc ac2d 2bbd 709c 863d d288 36be
00000340: 900a 213c 0cfe d93d 3e0b 7f3e 1080 80be
00000350: 8b16 5abe 67e3 033d 2e6c acbd d43c b8bd
00000360: b9c6 343c ef55 5cbb 6337 93bc 5ae6 debd
00000370: f2ce b7bb e967 a53d b355 74bd 4196 9abb
00000380: 395c 28bd b018 5cbe ba62 06be 4114 d33d
00000390: 91ff 84bd 0ea6 983e 3aad de3d 5b11 16bd
000003a0: 57e8 933d 2d12 093d 2f1c 63be a894 68be
000003b0: 5e3c 0f3e e18b 6dbd 5f81 933c dde4 a2bd
000003c0: 05cf 523c 198f 9e3d 0038 bdbd 70ad 43be
000003d0: f55b 19bc 78ff 2b3d a8b3 013e 13fd 47bd
000003e0: 5291 e6bc 27b4 df3c 1c16 f33a 4f8e 813e
000003f0: 1fe5 e1bd c59c eb3d 240c 2bbe cd4b 2cbe
-0.25205734 -0.059303585 0.04455327 0.07693905 -0.16563533 -0.07029579 0.12021454 -0.03580105
-0.07062079 0.09040175 -0.09779761 0.13437341 0.01954164 0.04665503 0.20425875 0.02388496
0.060814135 -0.15324691 0.20386885 -0.2438735 -0.13294373 0.010409395 -0.021915307 -0.010268392
-0.05339294 -0.2408655 0.15624624 0.19656046 -0.12717251 0.3431134 0.0023875888 0.0035583095
0.0032335345 0.0026769065 0.0085785445 0.0035843207 0.019150795 0.00090136117 0.0041442956 0.0018545482
0.012653013 0.0024785893 -0.0052460865 -0.00094142865 -0.0042515853 0.0006895002 0.002850426 -0.0026728022
0.013025369 0.0020612734 0.00034707945 -0.00029888347 0.0038671184 1.2841752e-05 -0.011742004 0.004091201
0.0026936424 0.00017349368 0.003089273 -0.0011636632 0.032547276 -0.079820566 -0.123746336 -0.09270013
-0.06715437 0.049228344 0.029473409 0.004630936 0.15718699 0.1262958 -0.14265805 0.029079285
0.005103213 0.0146081345 -0.0125551475 0.051426046 0.08565449 0.08415122 0.21129172 -0.120696016
-0.12987113 -0.17075785 -0.04312818 0.0028143916 0.023592535 0.062117856 0.0003027661 -0.02417077
0.14559057 -0.16201803 0.0093283085 -0.051435616 -0.013843558 0.008858047 -0.032055926 0.051439226
0.020282779 0.022521958 0.015908735 -0.015656013 -0.012661486 -0.031148605 0.0036618612 -0.009874317
-0.0056868684 -0.006480648 -0.014429001 -0.058826394 -0.049613427 0.008370622 0.004756564 -0.009657552
-0.025167994 0.0021613652 0.025571665 -0.019820914 0.01787838 -0.036797944 -0.02114064 0.011303032
0.12646566 -0.11077478 -0.12576437 -0.022253003 -0.032804154 0.14521536 -0.09775325 -0.036367476
-0.024605896 -0.07217647 0.1762537 -0.092345305 -0.123647146 -0.028586846 0.2269297 0.09405893
-0.15993309 -0.19316387 0.10876263 -0.015990917 0.11017674 0.009772098 -0.13666287 -0.003103267
-0.06853654 -0.27362695 0.1810451 0.18311088 -0.1518882 0.10021966 0.17097294 0.0664153
0.14555429 0.11365108 -0.0125105595 -0.11530186 -0.047534686 0.11515376 0.1594598 0.014826957
0.17199089 -0.06427847 0.10974433 0.11126268 -0.22741075 0.100649126 0.18629803 -0.23752247
0.08028423 -0.1761548 -0.027926095 -0.019119976 0.024328142 -0.00027849362 -0.061037127 0.057899248
-0.15768664 0.0061280625 -0.05659963 0.14979783 0.007629167 0.10132607 -0.10859065 0.008251074
-0.0035789583 0.09282958 -0.058698658 0.022228325 0.053272124 0.026710788 0.06985597 0.12376113
-0.16505302 -0.13146183 0.038127247 0.17801791 0.19383904 -0.18379886 0.09516521 -0.097088434
0.05142986 0.012443713 0.06736666 0.01999515 -0.026684467 -0.041791603 0.06572807 -0.1782563
0.009829178 0.10644159 0.24906632 -0.25097704 -0.21297662 0.03219929 -0.08419071 -0.08995977
0.011033707 -0.0033620556 -0.017970746 -0.1088378 -0.0056093866 0.0807646 -0.05965204 -0.0047176187
-0.041103575 -0.21493793 -0.13123599 0.103065975 -0.06494058 0.2981419 0.10872884 -0.036637645
0.0722205 0.0334646 -0.2217872 -0.22712958 0.13987872 -0.057994727 0.018006025 -0.079538085
0.01286674 0.077421375 -0.09239197 -0.1910913 -0.009360303 0.04199168 0.1266619 -0.048825335
-0.028145466 0.027307583 0.0018546018 0.25303885 -0.110300295 0.11504511 -0.1670385 -0.1682579

fc1.bias f4 [256]
00000000: 936f 603b caa5 a2b7 a48c 183b 4fbf a4ba
00000010: 66d2 c2bc 8ddd 5cbc 6db7 b6bb 4dbc 80bc
00000020: 317e 0dbc 2c5e 51b9 28d5 38bc fc3b ae3c
00000030: 958c b1bc a643 153c a5cc 29bb 723e a83a
00000040: b7d2 1db9 fbc5 763c 6247 fa3a e9ea cbbb
00000050: e46d 2c3c 44e8 103a 4467 be3b 17f5 413c
00000060: 6ac3 1e3b 7858 22ba 0323 cfbb 15de 4e3b
00000070: 2b82 0b3d f088 a9bb aa63 b93a 3613 1cbc
00000080: 84e4 d8ba 0b2a 243b 0ffa b238 46d7 993b
00000090: ba8b 37bb 4677 dfba d195 6a3c 0cf6 64b9
000000a0: 9889 feba 4491 f7bb b624 59bc 2c67 07ba
000000b0: df8a 1b39 37a6 9abc cdad b5bc b5be 0b3b
000000c0: 6ab3 283b a8da 093a d579 ae3c e0e7 cc37
000000d0: 512c 84bb c042 a8b9 5464 403b 5024 9c3a
000000e0: b81c 45bb 2650 eb3a 745b 9939 8ad5 0b3b
000000f0: 6256 e53b f622 063c 799f 14b9 0052 75bb
00000100: 0381 93bc a0d2 af3b f06a 3ebc f111 a63b
00000110: b805 803b f7ad 51bc 7f1d 8e3c c4c4 cfbc
00000120: a0f1 f239 46c3 5fbb e6aa cdbb 205e 993c
00000130: 4b4b 4fbb dd87 bbba cea3 94bc 48fb c83a
00000140: f512 24b9 048d 0b3c dc4c d4ba 6901 9cba
00000150: d243 063c b676 e6bc b016 b23b 7cd5 b23b
00000160: 1fd1 ef39 6d59 af3b aef7 293b 5686 973a
00000170: db77 ad38 afe4 49bc bb5f 7bbb 1ee0 9bb9
00000180: f8c4 95bc d739 9e3c b03c 9439 6ff2 1cbb
00000190: 7335 d03c 04d4 6a3b ebdf 8c3c 9377 1bbc
000001a0: 0415 96bb 663c 2abb 577e c8bb 29ab f9ba
000001b0: 6b53 123c fcc3 6d3b 6ebe 8eba 92e3 e5bc
000001c0: 69f0 953c dcde ca3b cf2c fe3a 7115 803b
000001d0: 7fb3 8e3b f86b 9abb 4ad4 9a3b 8298 0ebb
000001e0: 7843 96bb 88c3 803c 69ac f7b9 42e6 273a
000001f0: a631 d339 7b93 9f3c 5835 3ab9 5146 863c
00000200: d83c 8a3b 828c 8cbc b419 7339 8c60 273b
00000210: 8d1e c43a 4963 90bc 0038 76bb e792 70bc
00000220: 2b58 05bc 5f78 f139 db4b e0ba fa73 3dbc
00000230: 5d87 97bc 9469 1eba 4391 12bb da73 85b9
00000240: d408 30bb 7aec 03bb 30d1 473c 40e1 a239
00000250: 1be6 29bc b8cc 96b9 3e5e ae3a 4f6b 66bc
00000260: ffd2 833c d726 09bb 7a0a a5bb 3d1b 26bc
00000270: ace2 5d3b a003 063b 9ce1 66ba ee8e 923b
00000280: 725b ae3b 70e9 e23a b3eb 6eb8 8203 8c3c
00000290: 95c7 e7ba ea83 08bb 61f6 76bc 38f8 eebb
000002a0: 7fcd ce3b c282 fbbb 60a9 e238 5c95 993b
000002b0: 4d90 dcbb 7a6a a03a 4fe5 82bc 4c31 76b9
000002c0: df57 7a3a 155a b53b 0f03 5b3b 50cb a338
000002d0: 1853 e939 be50 8d3b 2a42 123c fc73 a3b9
000002e0: c298 063c e406 d73a a22b 9b39 10a3 2dbc
000002f0: ec62 543a 4c12 e2b9 f887 acbb 2c3a 9639
00000300: d4de 28bc 15ce 70bc 5ba6 1fbb a901 113c
00000310: d089 afbb 5ca2 ecb9 ebcb c4bb f551 503a
00000320: ef06 303b ca93 16bb 7abd 04bc 76eb 2b3a
00000330: 5c25 cf39 3ad7 1dbb 8074 e43b 60f2 0cba
00000340: 568e 5e39 1097 0f3a f934 3cbb 2e2e 6f3a
00000350: 115b 8c39 999e 30bc e6f2 04bc 1bc6 ebba
00000360: f6b6 cbbc 9f88 133c a449 0b3b 6238 773c
00000370: e4f9 b6bc 54a8 f3bc 42f9 093c 3279 22ba
00000380: cabe d3ba 05a2 8fbb d63e 2fbd 9092 a63a
00000390: 0c0c a5bb 7870 a0bc aeb7 8c3c d098 823a
000003a0: 5d4b 883c 2fe2 0e39 6b53 013c bc36 15b8
000003b0: 33b5 2e3a 3b3d ab3b a8d9 283c 02fd ee3b
000003c0: e11b b9bb 8b4f 473c 10b8 dbb6 157e 6a3c
000003d0: de47 5abc a37d d43b 08d1 59bb f171 173a
000003e0: ae67 23ba fca7 13bb 4288 cdb9 9cfb d6bc
000003f0: 5bf7 caba 6645 cbbb ca7c 24bb c1d1 453c
0.003424619 -1.9389106e-05 0.0023277188 -0.0012569221 -0.023781966 -0.013480556 -0.0055760653 -0.015714789
-0.008636043 -0.00019966875 -0.011281289 0.021268837 -0.02167348 0.009110367 -0.002590933 0.0012835993
-0.00015051184 0.015061851 0.001909476 -0.006223072 0.010524247 0.00055277743 0.00581065 0.011838219
0.0024225363 -0.00061929924 -0.0063213124 0.0031565477 0.034059685 -0.005173795 0.0014144082 -0.009526065
-0.0016547595 0.0025049474 8.5342785e-05 0.004694852 -0.0028006868 -0.0017049096 0.014317946 -0.00021835434
-0.0019419668 -0.007555159 -0.0132533815 -0.0005165215 0.00014833685 -0.018878086 -0.022177601 0.0021323387
0.0025741705 0.00052587176 0.021298328 2.442667e-05 -0.0040336032 -0.0003209319 0.0029356675 0.0011912677
-0.0030076932 0.0017952963 0.00029250572 0.0021336996 0.006998823 0.008187046 -0.00014173788 -0.003743291
-0.018005854 0.0053656846 -0.011622176 0.0050680568 0.0039069317 -0.012797824 0.01734805 -0.02536238
0.00046337862 -0.0034143492 -0.006276476 0.01872164 -0.0031630571 -0.0014307458 -0.018144514 0.0015333677
-0.00015647321 0.008517507 -0.0016197222 -0.0011902276 0.008194881 -0.028132778 0.0054348335 0.005457578
0.0004574144 0.0053512366 0.0025934982 0.0011560421 8.271608e-05 -0.012322589 -0.003835662 -0.00029730884
-0.018282399 0.01931469 0.00028273975 -0.0023948213 0.025416112 0.0035831938 0.017196616 -0.009488958
-0.004580142 -0.0025975942 -0.0061185765 -0.0019048202 0.008931021 0.0036280146 -0.0010890493 -0.028062616
0.018303113 0.0061911177 0.0019392016 0.003908806 0.0043548937 -0.004712578 0.004725014 -0.0021758382
-0.0045856796 0.015718237 -0.00047239967 0.00064048555 0.00040282047 0.019479504 -0.00017758214 0.016390951
0.004218679 -0.017156843 0.00023183861 0.0025539724 0.0014962718 -0.017625468 -0.003757 -0.014683462
-0.008138697 0.00046056786 -0.001711245 -0.0115632955 -0.018497163 -0.0006042954 -0.0022364415 -0.00025454053
-0.002686073 -0.0020129965 0.01219587 0.00031066872 -0.010369803 -0.00028762757 0.0013303233 -0.01406367
0.016091822 -0.0020927691 -0.0050366493 -0.01013833 0.003385703 0.0020448938 -0.0008807422 0.004472605
0.0053209597 0.0017312001 -5.6963134e-05 0.017091516 -0.0017683381 -0.002083058 -0.01507339 -0.0072927736
0.006311118 -0.0076754997 0.00010808068 0.0046869945 -0.006731069 0.0012238764 -0.015978483 -0.00023478753
0.0009549837 0.0055344203 0.003341857 7.8103156e-05 0.00044503133 0.0043126037 0.008926908 -0.00031176198
0.008215131 0.0016405252 0.00029596413 -0.010597959 0.0008101899 -0.0004311971 -0.005265232 0.0002865357
-0.010307033 -0.014697571 -0.002436063 0.0088504935 -0.0053570047 -0.00045134395 -0.006005754 0.0007946783
0.0026859601 -0.0022976273 -0.008101815 0.0006558219 0.00039509952 -0.0024084584 0.0069718957 -0.0005376693
0.00021224594 0.0005477527 -0.0028718098 0.0009124008 0.0002677073 -0.01078 -0.008114552 -0.0017988117
-0.024867516 0.009004741 0.002125361 0.015089126 -0.022335954 -0.029743351 0.008421244 -0.0006197869
-0.0016154882 -0.004383328 -0.042784534 0.0012708474 -0.0050368365 -0.01958488 0.017177429 0.0009963755
0.016637499 0.00013626435 0.007893424 -3.5575344e-05 0.0006664574 0.005225805 0.0103058 0.0072933445
-0.0056490754 0.012164961 -6.5481363e-06 0.014312287 -0.013322799 0.0064847036 -0.0033236165 0.00057771715
-0.0006233406 -0.0022530546 -0.00039202167 -0.026243024 -0.0015485095 -0.0062033413 -0.0025098794 0.012073935

fc2.weight f4 [128, 256]
00000000: 1474 d33a 63f6 873a 7b1e 3dbd ad1c 62bb
00000010: 5f55 89bd e923 be3b 8664 293c fb67 b23d
00000020: adf6 1bbd 9349 33ba 0786 573d a662 b6bb
00000030: ae85 ae3b 5719 c7bb 19bb ff3c 9733 abbc
00000040: 88bc 2bbb 8d48 583c 9003 8b3b f5b5 373d
00000050: a4c2 88bd 5ee3 353b 6dce df3b a5ed 9dbc
00000060: fed6 cd3c bb32 d33a a59d 05be 9e8c 39bd
00000070: 7dff c4bd 4861 e8bd 3b57 d53c 26cb dcbd
00000080: cb6e 943b be37 48bd 52a6 4d3b f9c1 223b
00000090: 3000 c93b a3e1 20bc 5f4a cc3c bfd0 8a3b
000000a0: dfa8 c43c ec65 93bd 2a1c fd3c 51a2 103d
000000b0: 38e4 c13b b1e0 ed3c b3ce f83d e970 86bd
000000c0: f911 00bd e0d1 d23c a7c9 01be 9a9b 24bd
000000d0: 85d6 febc 0404 803c 2e08 d6bd bec0 623b
000000e0: 759e cb39 d7de d1bd 0f72 06bb b25c 8abc
000000f0: ea3d 46be b5e4 e5bc aca8 2a3c d023 113d
00000100: f3eb d53d efed cb3c b41b 423d 37bb 8e3d
00000110: 0439 13bc 72f1 77ba 49c7 9e3d b8d0 43ba
00000120: 511c 9dbd 40ee 4438 bdcb 1fbd b37b e63d
00000130: 0580 a13c aa57 6b3c 3833 013d 7920 423c
00000140: 596d d4bb 46b2 eabc b29a 4dbd 4aae 2f3c
00000150: fd8b bcbc ee0b afbd 0c65 f4bc 1b16 bb3c
00000160: 7838 223a 65d0 953d e384 81bd 0609 e13a
00000170: 5a3f b63b 6ef5 353b 192f 42bd b107 883c
00000180: 81e8 ce3c a257 263e 6c43 8ebd 2329 c33d
00000190: 7af4 703c 5983 153e bd72 a93d 81b8 883d
000001a0: 6f8a bbbb d093 593c da82 f4bc 0497 1b3e
000001b0: 2127 383d d7b2 ccbd ed2a af3c 9efa 473d
000001c0: 3b49 2fbd 52c5 e9bb 04eb 023e a37d a3bc
000001d0: 2900 1c3d 55ce f43d 0eab c9bd 84a0 80b9
000001e0: b614 873d 7bf9 1dbe 1259 05ba 8e1d c2bc
000001f0: ef44 49b9 c7ef 743d 793a 663c 9fc7 38bd
00000200: 508d e53c e1b8 0c3d 93e2 aa3b ebe4 ef3c
00000210: 27b7 973b 8c7b 18bc b66a 3abd 2532 bebc
00000220: 6f06 4d3d e716 f4bb 311b 49bb 4a5c 8e3d
00000230: 80c3 24bd 4bc6 0d3c 6fd4 b0bd 249c 9838
00000240: bd5d 13bd 55ae b63c c04a 083c c124 853d
00000250: b75f 18bd 8499 c7b8 68a7 023e e657 2a3d
00000260: 2246 b23c 7298 133d e316 c8bd e9ea 00be
00000270: e74f ad3a ab1f d03a c1dd 26bd 9891 0bbe
00000280: 9b17 f7bc 798b 503c 9508 d7b9 04a1 02bd
00000290: 0cd5 183b 3a79 893d 5203 bebb af07 d7bd
000002a0: d809 6bbc 901e c9bc 17b0 82bc a207 fe3c
000002b0: 852e d23c 0b36 ecbd 5684 313d c269 3cb9
000002c0: b527 cb3c 590e 9ebb 787e 97bd dffe b03c
000002d0: b97c b33b 4974 243c 4027 963c c3cc cb3d
000002e0: 2601 063e c237 5e3d 2c05 06bb 0d15 0dbd
000002f0: a9d3 db3c d4a0 833a 2769 55bc 74b9 ab3b
00000300: a58c 2d3d 4a19 ec3d 0c43 433d 74e3 223d
00000310: 6f1d 363d b5cf 00bd 3d58 6b3b 24a8 0d3c
00000320: 22ec 3bbb 6bab 313c 6fe8 fc3c b39f a33c
00000330: 691c 06bc f2fa 913b 4096 43bd 37c8 c2b8
00000340: 6ae0 05bb 32d9 b33c 3e2b 143d d163 853a
00000350: 8f11 093b 14ba b43c 3dbb e7bd 61f5 fc3c
00000360: 4aab ee3c c84b 913d 5d5f 10bd e862 643c
00000370: 664c b23c 0614 73bd fcac 1ebe 479b b93c
00000380: d35d 063b fdcb 7f3d 113e dabb b840 763c
00000390: d249 67bc 6cff 903b 8544 3bbd d736 87bb
000003a0: 32d0 8e3c 14c4 933b 9c6c 643c e129 a03b
000003b0: e6f5 1837 96b1 f5bc 6eb4 1fbc b9b5 6f3c
000003c0: 32a5 d7bc 5458 2d3c f784 8b3a 7bcd 8ebc
000003d0: d0e0 adb8 3f48 633d b504 a33b 7a36 73ba
000003e0: aff9 fc3c 8d49 16bd e452 873a 1cd3 c5bc
000003f0: 4305 2b3c c97e af3d a851 9b3c 74d8 e63c
0.0016132616 0.0010373112 -0.046171647 -0.0034501955 -0.06705736 0.0058026207 0.010338908 0.08711239
-0.038077045 -0.00068392715 0.052618053 -0.005565959 0.0053259945 -0.006076019 0.031217145 -0.020898623
-0.0026204903 0.013200891 0.004242368 0.044851262 -0.0667775 0.002775393 0.006830028 -0.019278357
0.02512693 0.0016113141 -0.13048418 -0.04530012 -0.09619043 -0.1134668 0.026042571 -0.10780935
0.004529809 -0.048881285 0.0031379652 0.0024834855 0.0061340556 -0.009819421 0.024937807 0.0042363103
0.024006305 -0.071971744 0.030897219 0.035311047 0.0059170984 0.029037805 0.121488 -0.06564505
-0.03126714 0.025734842 -0.1267458 -0.040187456 -0.03110815 0.015626915 -0.10450779 0.0034599747
0.00038837237 -0.102475815 -0.0020514762 -0.016889904 -0.19359556 -0.028063158 0.010416191 0.035434544
0.10445394 0.024893729 0.0473897 0.06969302 -0.008985762 -0.00094582804 0.077528544 -0.0007469761
-0.076714166 4.695193e-05 -0.03901266 0.112540625 0.019714365 0.014364162 0.031542987 0.011848562
-0.006482762 -0.02864946 -0.050196357 0.010722706 -0.02301597 -0.08547197 -0.02983334 0.02283769
0.0006188224 0.07315139 -0.06324174 0.0017168827 0.0055617513 0.0027764696 -0.047408197 0.01660523
0.02525735 0.16244367 -0.069464535 0.095293306 0.014706725 0.14600886 0.08273838 0.06675816
-0.0057232897 0.01327987 -0.029847551 0.15194327 0.04495919 -0.099950485 0.021382773 0.04882299
-0.042794447 -0.007134118 0.12784964 -0.01995737 0.03808609 0.11953417 -0.09847079 -0.00024533656
0.06595747 -0.154272 -0.000508682 -0.023695733 -0.00019194534 0.059798982 0.014052027 -0.04511225
0.028021485 0.034356 0.005214998 0.029283961 0.0046299878 -0.0093068 -0.045511924 -0.02321727
0.050054964 -0.0074490192 -0.0030686373 0.069511965 -0.040225506 0.008653234 -0.086342685 7.277008e-05
-0.035978068 0.022299925 0.008318603 0.06501151 -0.037200656 -9.517654e-05 0.12759173 0.041587733
0.021761958 0.036034055 -0.0976999 -0.12589611 0.0013222665 0.0015878578 -0.040738825 -0.13629758
-0.030162623 0.012728565 -0.0004101439 -0.031891838 0.0023320345 0.06712575 -0.0057987357 -0.104995124
-0.014345609 -0.024550706 -0.015953107 0.031009499 0.025656948 -0.115337454 0.043339096 -0.00017968475
0.024799207 -0.0048234877 -0.07397169 0.021605907 0.0054775146 0.01003749 0.018329263 0.099511646
0.13086376 0.054252394 -0.002044986 -0.034443904 0.026834326 0.0010042437 -0.013025559 0.0052406136
0.042370457 0.11528261 0.047671363 0.039767697 0.044461664 -0.031448085 0.0035910748 0.008646045
-0.0028674682 0.010844092 0.030872552 0.019973611 -0.008185484 0.004454964 -0.04775071 -9.287934e-05
-0.002042795 0.021954153 0.03617405 0.0010176842 0.0020915007 0.022061385 -0.1131501 0.030878725
0.029134411 0.07094532 -0.035247196 0.013939597 0.021764945 -0.059345268 -0.15495676 0.02265705
0.00205027 0.062450398 -0.006660231 0.015030079 -0.014116721 0.00442498 -0.045719642 -0.0041264105
0.01743326 0.0045094583 0.01394191 0.004887805 9.117159e-06 -0.029991906 -0.009747608 0.014630728
-0.026323888 0.010580141 0.0010644485 -0.017431965 -8.2911574e-05 0.05548882 0.0049749264 -0.0009277832
0.030880777 -0.036691237 0.0010324386 -0.024148516 0.010438266 0.08569104 0.018959835 0.028179385

fc2.bias f4 [128]
00000000: 3c6b dcbc 13fc 06be 972a e8bc c679 56be
00000010: 5019 843d 92f6 8abc af02 0fbd 2c93 eeba
00000020: 8fe4 64bd 9357 9abc 1067 8bbd 9af0 2d3d
00000030: 403b 8cbd 433a 5dbd 2161 18be 0e23 3dbe
00000040: 7a1f d4bd 30b4 07be 4b1f 1ebe 4cfe 54bd
00000050: 465a 16be ac32 11be b331 f23c 2510 1cbe
00000060: c5f6 1fbd 49dd 9abc f51b 683d e89a 453d
00000070: c5de 73bd 1e25 5dbe ad01 9abd 61aa 4ebd
00000080: b0ce 803c 427f acbd 8b64 9abc 35a9 92bd
00000090: 4ea6 61be 20aa 1abd 9f99 cebd 041f dfbd
000000a0: 3783 d6bd 2c4b 99bd 262f 2cbd 6ff7 f63d
000000b0: 2238 bbbd 8c7a 8bbe 383e 04be 46ce 8fbd
000000c0: 2a65 36bc 9350 48bc 9128 48be 1159 73bd
000000d0: f242 293d 2c9a 20be d820 20bc 46ac 353c
000000e0: 3b44 d33b 27da 29be 2316 5dbd 289e 87bd
000000f0: 1f18 ddbd 0fd2 02be 52a3 bdbd 5fbd dabd
00000100: 032a 55be 9f53 b3bd b3e6 b9bd eb76 d9bd
00000110: c987 41be 9731 40be 9f39 70bd abff 78bd
00000120: 018c 36bd 107b cdbd 342e 6f3d e1ef 49bd
00000130: a7f7 d3bd b6c9 94bd a778 563d 24b2 a73c
00000140: a815 ddbd 91b1 23be 2993 0ebe 703d 14be
00000150: 88ca d13c ee6c 023d 9b8e 60bd 340c 4fbd
00000160: e73d 2bbe 163b a9bc e39f 10be 8a69 87be
00000170: 86d8 55bd 051b abbc 93ad a8bd 12ea 0dbd
00000180: 3775 83bd 5057 14bd 23c7 2fbd 3533 fabd
00000190: 04ea aabd dab7 1bbe c817 fabd f9af 1dbd
000001a0: 390b 87bd 462c 06be 9fd7 59bd 2b8a a8bd
000001b0: 66bc debd 9f75 903b 4521 e5bd bb99 95bb
000001c0: 14e9 d1bd b3f1 d3bd e179 ea3b 871e 04be
000001d0: 2020 f2bd 804d 80be eb5b 89bd 1d1d 613c
000001e0: 691e d6bd d2f2 d8bd 484d aebd dae9 38be
000001f0: d579 05be 5b0a d8bd fcef 82bd 51c6 72bd
-0.026906602 -0.13182096 -0.02834062 -0.2094489 0.064501405 -0.016963277 -0.03491467 -0.001820182
-0.055882033 -0.018840587 -0.06806767 0.042465784 -0.068472385 -0.05401064 -0.14880802 -0.18470404
-0.10357566 -0.1325233 -0.15441625 -0.05200033 -0.14682874 -0.14179486 0.029564714 -0.15240534
-0.039053697 -0.018904345 0.056667287 0.048243433 -0.05953862 -0.2159619 -0.07519851 -0.050455455
0.015723556 -0.0842271 -0.01884677 -0.0716118 -0.22036096 -0.0377599 -0.10087895 -0.10894588
-0.10474246 -0.07485041 -0.04203715 0.12058913 -0.09141566 -0.27241933 -0.1291436 -0.070217654
-0.011132518 -0.012226242 -0.19546725 -0.059411112 0.04132361 -0.15683812 -0.009773456 0.0110884365
0.0064473427 -0.16587125 -0.05397619 -0.06621963 -0.10795616 -0.12775443 -0.092596665 -0.10680651
-0.20816807 -0.08756184 -0.090772055 -0.10618385 -0.18899454 -0.18768917 -0.0586487 -0.0607907
-0.044567112 -0.10033238 0.058393672 -0.049301032 -0.1034997 -0.07265036 0.052361157 0.020470686
-0.10795146 -0.15985705 -0.13923325 -0.14476562 0.02560927 0.031842165 -0.0548235 -0.050548747
-0.16722833 -0.020658057 -0.14123492 -0.26447707 -0.052208446 -0.020886907 -0.08236232 -0.034647055
-0.06418841 -0.03621608 -0.04291452 -0.12216798 -0.08345416 -0.15206853 -0.12211567 -0.0384979
-0.065939374 -0.13102826 -0.053184148 -0.082294784 -0.10875778 0.004408553 -0.11187986 -0.0045654452
-0.10249534 -0.10348835 0.0071556424 -0.1290227 -0.118225336 -0.25059128 -0.06706985 0.013739851
-0.10455019 -0.10593189 -0.08510834 -0.18057957 -0.13034756 -0.1054885 -0.0639343 -0.05927116

fc3.weight f4 [64, 128]
00000000: 9922 d0bc 0e34 08be e717 b33d 18b3 f6bc
00000010: a2b5 80bd 4b00 1b3d 1a1b 6ebd 0e46 203d
00000020: 9c14 be3c edba 4d3d ef35 913b 8b8f 913c
00000030: 679e f03b 2dee 10bd a7d0 3cbd e65a 1dbd
00000040: 2dac 65bd c423 dc3d 212f 0bbd 204d 92bd
00000050: f23d 4abb 9125 ca3c 8cba 8f3c f578 c03d
00000060: e548 c0bc 52d0 94bc 769b 71bd e39a d43a
00000070: c0fe c0bc 5a09 bcbc 990f 8f3c b4a3 463b
00000080: 8c29 36be 716c 2e3d 4e3e 983d a5c9 313d
00000090: 8450 93bc 8c15 603d f71c c73d f5c1 9e3d
000000a0: a77f 6b3d 50b9 5a3d ae73 5ebd 58ba ab3d
000000b0: 1ef7 33bd 1ebb 0fbd db66 c1bc d560 f5bc
000000c0: 4972 8abd 25bb 193e 9ffa 6abc 5cac c83d
000000d0: 1059 b33d 6254 013c 88e4 0cbe ce9f e1bd
000000e0: 0a76 6b3c f9c1 1abb 88d1 76ba 49ac 7a3c
000000f0: a211 7b3b 5fe4 36bd 4602 6abd a407 2d3b
00000100: f3ac f7bd e35a 9b3c 73eb 933d 7100 8f3d
00000110: 5210 28bc 0809 aebd aef0 03be 1d58 b4bd
00000120: fb9b c7bd fb5f a1bc 7752 2abc f3c5 803d
00000130: 8b58 403d 04fa c5bc f79e 82bc 7fb6 a13d
00000140: 89e9 43bd 75d9 8cbd d5c3 af3d f249 e93c
00000150: d50f aebc 78d9 eb3c ca6d aabd afe8 76bd
00000160: 208f 273d 23af 92bd e5f1 573d a29c 9abc
00000170: 5a9f b6bc dab8 1e3c c4c9 a5bc 520a 97bd
00000180: ab9b 443e 3d21 36bd 04f4 883d f879 393c
00000190: 8e37 29bd 9fc8 e4bd dbce a63c 87d0 543d
000001a0: fefb 433c e1e3 5c3b 9064 85bd 683e a23d
000001b0: 7bf0 56bd d74c 38bd 3509 263b 1ab1 863d
000001c0: 739d 17bd 9815 01be 9e2f 573d 52b5 123d
000001d0: 6add b6bd 76b5 d7bc 819c 03be e747 863d
000001e0: 5b63 0e3d 70bc 2e3d 4176 76bd fa58 623c
000001f0: 4702 08be 4588 d9bd 0578 42bc ffba e9bc
00000200: b23e 673c 07d2 a33c 01a2 2bbd afcd 133e
00000210: dd2e df3d 6422 603c 1a23 af3d 68f6 9bbc
00000220: 20f3 06bd 6d16 00bd 9de7 a43c 33e4 843d
00000230: 0ce3 e13c 322d ad3d 619f 823d 43ec 0ebd
00000240: cc38 633d ed39 ed3d 936e 2abd 5d78 cd3d
00000250: 77fc 1f3d 9d09 43bb 04a2 353d 443e 91bd
00000260: cb6e f93b f5f0 e9ba 1aad f93c 5e3c 57bd
00000270: 7cae 53bd 1265 a43c 0729 14bd d029 c4b8
00000280: 1249 bebc fb9e 15bd 718a 1a3d bb70 053c
00000290: 801a a73d ed11 ad3c 7d8f f5ba d965 e6bd
000002a0: 74da 7f3d d3cc 62ba a9d1 063e 16cc 8abd
000002b0: 7a73 04bd 34e9 e93b c8a8 ed3b 8969 33bd
000002c0: 38b0 5abc 1545 d8bd edf1 4cbd 0568 95bd
000002d0: bfb4 7c3d 8218 2c3d bbd0 5b3d 41ca e9bd
000002e0: fc71 80bd 064a 5fbd 1359 10bd ba99 e43d
000002f0: 7a19 01bd c787 c63d 59c1 57bc 506d 57bd
00000300: 8426 093e c2bb 6a3c eae9 333d 158f 823d
00000310: 0b92 783d fda2 ac3d 5d30 75bc 6397 09be
00000320: b07e c6ba f221 a33d 9ebf 90bc 5a2f 513d
00000330: d219 dfbc f783 e8bd e4a6 c03d 8f0b a9bd
00000340: 4e7c 8a3d a5f0 a63c 661e 85bb 63b7 1ebd
00000350: 52cb e63c 1c1b da3d 9834 ce3c df8b 753b
00000360: 38b9 683d 8099 8e3d 7600 45bd dcb2 473d
00000370: 38e7 173d 138c 013c d0ee d93c 369c 5ebc
00000380: 8c52 4dbd f76c 6fbb a598 fabc e165 983c
00000390: 3e3b f9bc ce0f 50bc cc5f 0fbc 2d8b 85bc
000003a0: 81da 59be 01c0 443d 6918 bebd bab2 893d
000003b0: a3b9 113c d264 773d e2b9 653d 1223 163d
000003c0: 0596 acbd e047 0c3a e426 5a3d 6a17 c6bd
000003d0: 0e76 01bc e1fa 183d c685 8b3d 253d de3c
000003e0: 62a7 dbbc 59d1 453c 46fc f6bd bb1b 30bd
000003f0: f435 b33d a6f8 d6ba c05a 48bd a365 43bd
-0.025407122 -0.13301107 0.087447934 -0.030114695 -0.06284644 0.037842076 -0.058131315 0.03912931
0.023203187 0.050227094 0.004431478 0.017768642 0.007343102 -0.035383392 -0.046097424 -0.038416766
-0.056072403 0.10749009 -0.033980493 -0.07143617 -0.0030859676 0.024676116 0.017545007 0.09398071
-0.023472259 -0.018165741 -0.05898615 0.0016220476 -0.023558974 -0.022953678 0.017463492 0.0030309977
-0.17789286 0.042583887 0.07433759 0.043405194 -0.017982729 0.05470805 0.097223215 0.07751838
0.057494786 0.053399384 -0.05430954 0.083851516 -0.04393684 -0.03509056 -0.023608616 -0.0299534
-0.067600794 0.15012796 -0.014341979 0.097985 0.08757222 0.007893654 -0.13759053 -0.110168085
0.014371404 -0.0023614152 -0.0009415378 0.015299865 0.003831007 -0.044651385 -0.057131074 0.002640226
-0.12093534 0.018964237 0.07222643 0.06982506 -0.010257797 -0.08497816 -0.12884781 -0.08805869
-0.09746548 -0.019699087 -0.010395638 0.06287756 0.04695944 -0.024167068 -0.015944941 0.078961365
-0.04783014 -0.06877414 0.08582274 0.028477643 -0.021247784 0.02879022 -0.08321722 -0.060280498
0.04090798 -0.07162311 0.052720923 -0.018873516 -0.022292782 0.009687627 -0.02023781 -0.07375015
0.19200008 -0.044465292 0.06687167 0.0113205835 -0.041312747 -0.11171078 0.020362308 0.05195668
0.011961935 0.0033705162 -0.065133214 0.07922059 -0.052475434 -0.044995155 0.0025335078 0.06576748
-0.03701539 -0.12605894 0.052535646 0.03581745 -0.0892895 -0.026331645 -0.1285267 0.06556683
0.03476272 0.042660177 -0.06017137 0.013815159 -0.13282119 -0.106216945 -0.011869435 -0.02853155
0.014114069 0.01999761 -0.041902546 0.14433931 0.1089761 0.013680074 0.08551617 -0.019038394
-0.032946706 -0.031271387 0.020129973 0.06488838 0.027574085 0.08455886 0.06378055 -0.034893285
0.055474088 0.11583314 -0.041609358 0.10032723 0.03905913 -0.0029760369 0.044343963 -0.07091954
0.0076120845 -0.00178483 0.03047805 -0.052547805 -0.051680073 0.020067725 -0.03617194 -9.3537965e-05
-0.023228202 -0.03652857 0.037729684 0.008144553 0.08159351 0.021126712 -0.001873478 -0.11249895
0.062464193 -0.0008651737 0.13165917 -0.067772076 -0.03233669 0.0071383957 0.0072527863 -0.043801818
-0.013347678 -0.10560051 -0.050035406 -0.07295231 0.06169581 0.04201556 0.053665858 -0.1141553
-0.06271741 -0.054513954 -0.035241198 0.111621335 -0.031518437 0.09693866 -0.013168656 -0.052594483
0.13393599 0.0143269915 0.04392425 0.06374947 0.060686152 0.08429525 -0.014965144 -0.13436656
-0.0015143957 0.07965459 -0.017669495 0.05107055 -0.027233992 -0.11353295 0.09406832 -0.08254158
0.067619905 0.02037842 -0.0040624617 -0.03874911 0.028173123 0.10649702 0.025171563 0.0037467403
0.056817263 0.069628716 -0.048096143 0.048754558 0.03708574 0.007906931 0.026603132 -0.013587048
-0.05012755 -0.0036533454 -0.030590365 0.018603267 -0.030423757 -0.012699081 -0.008750867 -0.016301716
-0.21274759 0.04803467 -0.092819996 0.067235425 0.008894357 0.060398884 0.056085475 0.03665454
-0.084270515 0.00053512864 0.053259745 -0.09672435 -0.007901682 0.03734863 0.06812625 0.027128765
-0.026813213 0.012073838 -0.12059836 -0.042995196 0.08750525 -0.0016401007 -0.04891467 -0.04770435

fc3.bias f4 [64]
00000000: 2ec6 debb 4c5b d6bd 7a6e 65be bf47 04be
00000010: 89f1 e4bd 95b4 d7bd 2969 d5bd 12e2 1fbe
00000020: 4561 15be fed6 9cbd 9bf5 bfbd 9b90 39be
00000030: 4110 b3bd 836b b9bd 558d 76bd 7d7d 82bd
00000040: 847b cabd fa8d 8a3c be6a d1bd 8cac e2bd
00000050: b98e c8bd 6fff 1cbe 058f f6bd 9a69 e5bb
00000060: 60fd e7bd 7956 81bd 8a06 0ebe 4a4f 19be
00000070: aa05 8abd cf7f 013d 7b51 11be 95e1 73be
00000080: 3cae 0abe 8f55 2dbc 078e 1abe 607b 23be
00000090: d03d 55be 04b5 0cbe cc68 d5bc 5591 bdbd
000000a0: bafa 3bbd 9fb1 77bd c0c9 f1bd f50e bdbd
000000b0: 8400 bebd 97da 1fbe f998 19be 2b39 4cbc
000000c0: 5154 51bd eeec 9fbd a5eb 21bd 10b7 a9bd
000000d0: fc6d b0bd 2066 0ebd a0ef 50be f6d9 db3c
000000e0: ad44 b9bd ee45 acbd f2cd 5cbe 5eac 2cbe
000000f0: b9a6 0fbe d314 37bd 21ad 18be 11cb 10be
-0.006798527 -0.10466632 -0.22405425 -0.12917994 -0.11178882 -0.1053249 -0.10420448 -0.15613583
-0.14587887 -0.07658194 -0.093730174 -0.18121569 -0.087433346 -0.09053709 -0.06019338 -0.06371591
-0.0988684 0.016913403 -0.102254376 -0.11068067 -0.09792847 -0.15331815 -0.120389976 -0.007001114
-0.11327624 -0.063153215 -0.13869682 -0.14971653 -0.067393616 0.03161603 -0.14191239 -0.23816521
-0.13543028 -0.010579481 -0.15093242 -0.15965033 -0.20824361 -0.13740927 -0.026050948 -0.092562355
-0.04589341 -0.060472127 -0.11806059 -0.092313685 -0.09277442 -0.15610729 -0.1499976 -0.012464802
-0.0511058 -0.078088626 -0.03953137 -0.082868695 -0.08614728 -0.034765363 -0.2040391 0.02683733
-0.09046302 -0.084117755 -0.21562937 -0.16862628 -0.14028443 -0.044697594 -0.14909793 -0.14139964

fc_int.weight f4 [64, 128]
00000000: e25d 09bc aec0 92bd 0ec4 aabb 8c93 65bc
00000010: 3115 8c3d f232 eb3c 5929 ea3c 3b79 acbd
00000020: 4a00 113e 482f 25ba 396a 943d d4a8 423b
00000030: d53a 283c 9fe1 e03d e792 1bbe 350d 5b3d
00000040: 14ff b63c bef7 4bbd 16a7 68be f7af 803d
00000050: 4809 b8bd 9f39 7bbd 739d 3a3c d6fe 31bc
00000060: 5591 b83d f06e 0c3e 9e4b febd b573 173d
00000070: 0f3e 2c3d 5eea e2bd 0dea 60bc 3a98 853d
00000080: c0e1 f73d 9ea9 65bd 757f 1dbd 3652 a43d
00000090: 86f3 b53d 04f3 8dbb a071 b23d b42f 50ba
000000a0: 7f63 04bd 44ea 893c 6dc4 0a3e 0f5e 94bd
000000b0: 01dd a13d c092 2ebe 19c4 3cbc 4fa5 8fbd
000000c0: f97f b3bd 03d3 45be 2ebf c3bd 77bc 963d
000000d0: 0ef8 27be 9f87 cbbd 756b 9abd c707 93bc
000000e0: 2da7 0bbe 39d3 18be 9221 193c 0bb6 abbd
000000f0: b66e 09be fb3e 323e a9c8 ca3c dfef 4ebd
00000100: a067 363d a125 db3c 8945 1ebc a150 03bc
00000110: 8a8d adbd ceb7 e23c c148 1d3c 77f9 8a3c
00000120: e6d0 25bb f78f 133c 4b61 dbbb e56c 95bc
00000130: 51a5 a03c 6429 b63c 6d32 dbba 6e92 a83c
00000140: 209c c7bd ad08 9abc cae8 2a3d a2e5 023c
00000150: 06b4 d5bc 18a1 c1ba 992f 8f3c cf18 893d
00000160: 55d9 a93c 32b9 8bbb c554 793d d4a7 d13c
00000170: 00bd 3ebd 147a 1dbd c7b7 623c 5dbc 27bc
00000180: d33e b5bc 09c9 a4bc 1e4b dcbc 9099 45bc
00000190: 2549 50bd 6a7d 38bb 3e18 2b3d f5e1 bc3c
000001a0: 2c0c 0bbd 4ae6 7c3c 5c73 b0bc eb3b b13c
000001b0: 9090 063c 408c 91bb 8cb0 843c aa5a fb39
000001c0: 6c74 b53a 6ac9 603c 5838 453d 5ed2 16bc
000001d0: d13b 97bd 7c21 6a3c 3019 e839 e392 9b3d
000001e0: 98fd 7fb9 f9f4 193c c83e d6b9 9c85 da3c
000001f0: ade0 083d f4b2 93bb 0b25 d23d b423 4e3c
00000200: a9c2 1a3e cf7c 0cbe 448b bfbd a348 08be
00000210: 6789 c13b 10fe 773d ca9e 0dbe ada3 f5bb
00000220: e31c fd3c 423e 0bbe 3713 edbc 9a1c fcbd
00000230: cb81 72bc 4ae9 133d 1a34 3abe c092 983d
00000240: 3f9b 3dbc 6ad3 05be 75d7 fdbd c5ad 3aba
00000250: e47b 3abd afee 87bc b918 b6bd d0bc ed3d
00000260: 05ec 1abe 3bcc bf3d 0af5 d6bd 70a8 11bc
00000270: 7f08 e33d ad20 81bd 647c 7bbd 4d72 c83d
00000280: 3538 8fbd 693b babd f489 8cbd e1f1 92bd
00000290: 57b7 433d 89c3 1a3e 07ab a03d 5cf6 e43c
000002a0: 9443 bc3c 6b8f 783d 3b96 a0bd 717d dabd
000002b0: 0ab9 be3b e9af 7ebe 155f 6cbd d4c4 9cbc
000002c0: 11f8 a0bd 73af 18bd ec08 a7bd 9ef0 3f3d
000002d0: e4e9 57bd 0cf9 fbbc b2b3 e43d c087 0cbb
000002e0: 9f41 53be 1185 6fbe 1ccf abbc 7628 3fbe
000002f0: 982f e3bd 4b0e f63d e2f4 863d 7441 ffbc
00000300: 6cdd a83c b836 263c 61a4 ac3b 8764 ce3c
00000310: d5dd 2ebd 2ebc 553c 46a8 38bc b980 8abc
00000320: 5b33 cebc 4160 f9bc a521 56bd 134b 3bbd
00000330: 568b e9bb 16ac 03bc d5a2 703d f5be 4dbd
00000340: 9e7a 18bd d4ce 3fbd fb17 11bd f49a 093c
00000350: 5963 533d 6c12 06bd 2257 c33a 0902 49bc
00000360: 56fb c9bc 1aa2 203d 4434 2f3c ac8f 503c
00000370: 67ba d1bc f959 9dbd 8d43 9ebc c75a 3f3c
00000380: 0402 37ba 311b 44bc d8f0 093c 8153 3abd
00000390: 1c9b bcb9 d660 11bc 6629 993c 369a dfbc
000003a0: 816a 173d 5321 3cbd 6a1f e3bc f069 30bd
000003b0: f048 92bc a6b9 96bb 5fe4 063b 2a40 003d
000003c0: 348b 433b 57d3 1e3d 3f20 acbd 06eb 1dbc
000003d0: fc77 52bd 0668 8fbd 7bf9 793d 2ab3 243d
000003e0: e09a 29bd 2c78 553c 5ae2 b1bc adee d7bc
000003f0: 393c 58bc 4581 47bd edbd 01bd 557c a83c
-0.0083842 -0.07165657 -0.00521136 -0.014012229 0.068399794 0.028710816 0.02858417 -0.084215604
0.14160267 -0.0006301296 0.07246823 0.002970268 0.010267933 0.10980534 -0.15192758 0.053479392
0.022338428 -0.049796812 -0.22719988 0.06283563 -0.08986145 -0.06133425 0.011390078 -0.01086398
0.09012095 0.13714194 -0.124167666 0.03697558 0.04205137 -0.11079858 -0.013727677 0.065231755
0.12103605 -0.056069963 -0.03845163 0.08023493 0.08884339 -0.0043319482 0.087130785 -0.00079416786
-0.03232145 0.01683534 0.13551493 -0.07244503 0.07903481 -0.17048168 -0.011521363 -0.07013952
-0.08764643 -0.19318776 -0.09557949 0.073601656 -0.16403219 -0.09937977 -0.07540027 -0.017948044
-0.13637991 -0.14924325 0.009346383 -0.08384331 -0.13421139 0.17406838 0.024753885 -0.050521728
0.04453242 0.026751341 -0.009660133 -0.008014829 -0.08474262 0.027675536 0.009599865 0.016964657
-0.0025301515 0.009006492 -0.006694948 -0.018240402 0.019610079 0.022236533 -0.0016723402 0.020577636
-0.09746575 -0.018802965 0.04172591 0.007989319 -0.026086818 -0.0014772741 0.017478751 0.06694185
0.020733515 -0.0042640204 0.06087186 0.025592722 -0.046566963 -0.0384465 0.013837761 -0.01023778
-0.022124683 -0.020115392 -0.026891287 -0.012060538 -0.050851006 -0.0028150924 0.041771166 0.023056963
-0.033947155 0.015435765 -0.021539383 0.021635016 0.008213177 -0.004441768 0.016197465 0.00047942
0.00138439 0.013719896 0.048149437 -0.009205429 -0.07384456 0.01429021 0.00044269254 0.07596376
-0.00024413166 0.009396785 -0.00040864036 0.026675038 0.033417393 -0.004507417 0.10260972 0.0125817545
0.1511332 -0.13719486 -0.09352735 -0.13308959 0.005906272 0.060545027 -0.13830104 -0.0074963183
0.030897563 -0.13597968 -0.028939826 -0.12310143 -0.014801453 0.036111154 -0.18183938 0.07449865
-0.011572658 -0.1306893 -0.12394611 -0.00071212306 -0.045528308 -0.016593305 -0.08891434 0.11608279
-0.15129097 0.09365126 -0.10495956 -0.008890256 0.11085605 -0.063050605 -0.061397925 0.09787426
-0.069931425 -0.09093363 -0.0686225 -0.07175041 0.04778227 0.15113653 0.07845121 0.027949505
0.022981443 0.06068365 -0.07841154 -0.10668457 0.005820398 -0.24871792 -0.057707865 -0.019136824
-0.07859815 -0.037276696 -0.081559986 0.04686033 -0.05271329 -0.030758403 0.11167087 -0.0021443218
-0.20630501 -0.23390605 -0.02097278 -0.18667778 -0.11093062 0.12014445 0.065896764 -0.03115914
0.020613395 0.010144882 0.005268619 0.02519442 -0.042692024 0.013045354 -0.011270588 -0.016907083
-0.025170973 -0.030441405 -0.05227818 -0.045725893 -0.007127206 -0.008036634 0.05874904 -0.05023094
-0.03722631 -0.046828106 -0.03542326 0.00839876 0.051608417 -0.032732412 0.0014903287 -0.012268552
-0.02465598 0.039217092 0.010693613 0.012729567 -0.025601579 -0.076831765 -0.01931932 0.011679358
-0.00069811963 -0.011969374 0.008419238 -0.04548979 -0.0003597372 -0.008873185 0.018696498 -0.027295213
0.036966804 -0.045930218 -0.02772494 -0.04306978 -0.017857045 -0.0045997677 0.0020582897 0.03131119
0.002983761 0.038775768 -0.08404588 -0.0096385535 -0.051383957 -0.07002263 0.06102894 0.040209927
-0.041407466 0.0130291395 -0.021714378 -0.026358927 -0.013197952 -0.048707265 -0.031675268 0.020567099

fc_int.bias f4 [64]
00000000: b3e8 093d e005 403d 28c9 01be d194 2ebe
00000010: d9e8 d0bc f726 27be 7dc4 a63d 4d2b 7cbd
00000020: 9656 c6bc fb9f 66bc 9f71 06bd a1d3 91bd
00000030: af40 acbd 33bd 6abe 6710 a9bd 0976 cbbd
00000040: 943c debd cd98 85be e1c7 fe3c 0efa a3be
00000050: 951b e7bd 2e2e 8f3d e75d 30bc bcda 69bd
00000060: 8f95 2abd 864c 45bd 68bf ed3c 022a 7abd
00000070: 0e08 9bbd 9e66 6abe d6e4 c6bd ce97 d0b9
00000080: 3298 31be 6d7c a6bd 4499 9ebd 036c 8dbe
00000090: 5c6d 55bd d8b1 80be 122c 22bd 736b 04be
000000a0: 95f9 1ebd 9c92 843c ba76 3abd a255 cabd
000000b0: 399c e0bd afc2 bbbc d6f1 fdbd 8c88 8ebd
000000c0: 6ebd 4abe 6a6b c2bd bef1 f5bd d1c0 b63d
000000d0: 4cb4 71ba db30 47be 9438 22be 2d71 a7bd
000000e0: 75a4 f5bd cf87 b1bc 5430 9cbd 6039 d9bd
000000f0: 9011 38bd d05d 89bd 1b9b 5dbe 7e9a 26be
0.033669185 0.046880603 -0.12674391 -0.17048956 -0.025501655 -0.16323458 0.08142946 -0.061564732
-0.02421121 -0.014076228 -0.0328232 -0.07120443 -0.08410775 -0.22923736 -0.082550816 -0.09934623
-0.10851398 -0.2609314 0.031101169 -0.32026714 -0.11284558 0.0699123 -0.010764576 -0.057093367
-0.041646536 -0.04816868 0.029021934 -0.061075218 -0.07569896 -0.22890708 -0.09711616 -0.00039785955
-0.17343214 -0.08129201 -0.07744077 -0.2762147 -0.052106246 -0.25135684 -0.03959281 -0.12931614
-0.03881224 0.01618319 -0.045523383 -0.098796144 -0.10967297 -0.02291998 -0.12399642 -0.06959638
-0.19798824 -0.09493144 -0.12008999 0.089234956 -0.0009220287 -0.1945223 -0.15841895 -0.081758834
-0.11994258 -0.021671204 -0.07626405 -0.106066465 -0.044938624 -0.067073464 -0.216412 -0.16269872

fc_int2.weight f4 [2, 64]
00000000: b6b8 c33d f48a 693c 6eba 283d a8f7 90bc
00000010: 1b79 54bd d1ed 283e 8c1d 18be 646f 063c
00000020: 630e 593e 023f 1c3c 50fb 91bd bc9c 27bd
00000030: 2994 283d b53d aabb 68c2 2ebd f40f 0b3e
00000040: 3546 e93d 4c92 a6bd afff adbd b992 9ebc
00000050: 9099 95bd 6ca5 e5bd 2644 9f3c e829 c6bd
00000060: 8ef5 3f3d 314a 0dbd 1e41 c13b 28fa bc3c
00000070: f166 fb3d a5d6 243e 7afe 513d 3a89 bebd
00000080: f69a fb3d 7e28 dfbc f1b4 633d db26 85bd
00000090: c2ba b4bd 1230 e6bc 175e 243c e38d 1c3d
000000a0: f76d dbbd 7002 93bd 2aec e13c c56f 4bbb
000000b0: d3ad 163d 7e3a a33d d953 b03b 0146 7dbd
000000c0: 8c5d c33d e5b8 cdbc 657e 7abd 074b 0f3e
000000d0: 10c5 03bd 50e0 683d a750 313b 4077 e83d
000000e0: 1afa 4b3d 25e1 1cbd fe86 9cbc 44ad 18be
000000f0: 8ead cc3d f64b 33bd e335 9a3c fd2a 84bc
00000100: 61bc 023e 230e 1e3e 8d70 7a3d 6d92 e5bd
00000110: eff7 b3bb d77a 123e 9f8e 27be 0874 e5bd
00000120: ce09 e73d 2b23 353d 0c0c ae3d 63df debd
00000130: c385 16bd f9b6 903d cc8b 15bd 8c75 1e3d
00000140: 2a42 d13d 398b 0f3e ad1c 56bd 1861 dcbd
00000150: 3df8 323d a92b 22bd 46e5 e6bb ef60 e0bd
00000160: c690 bdbd 6f74 b8bd b7c6 9cbd f09f ad3a
00000170: c2f7 163d adb9 923d 2ee7 013e a5a4 02be
00000180: 4a61 763d 1de5 db3c dcab 58bd 3915 703c
00000190: 7e2a 813d aa02 d93d e446 f73b b1fe 6d3d
000001a0: 16ae c9bd 45d4 83bd e877 3a3d 7824 9dbd
000001b0: 0939 8abc 9477 9dbb 4167 4b3d 6180 b8bd
000001c0: d11b b03d 2d39 963d 0be3 fabc fc2d e73d
000001d0: fe5d 26be e2dc 9e3d 4fa0 583d 20c6 033e
000001e0: 2cf7 f3bc c07d a1bc 3481 e9b9 4f1e 6abd
000001f0: 16da a4bd cb87 4d3d 10ad 183e af52 1d3c
0.09556715 0.01425432 0.04119342 -0.017696217 -0.051873308 0.1649697 -0.14855021 0.0082052685
0.21196894 0.009536507 -0.07128012 -0.040920958 0.04115692 -0.0051953443 -0.04266587 0.13580304
0.11390344 -0.08133373 -0.084960334 -0.019357072 -0.0730468 -0.11213192 0.019441675 -0.09675962
0.04686504 -0.034494583 0.005897655 0.023068503 0.12275494 0.16097505 0.05126808 -0.09303518
0.12285416 -0.027240988 0.05559248 -0.06501552 -0.08824684 -0.028099094 0.010032198 0.03822125
-0.107143335 -0.07178199 0.027578432 -0.0031041962 0.036786865 0.07970141 0.005381089 -0.06183434
0.09539327 -0.025112579 -0.061155695 0.13993464 -0.032170355 0.056854546 0.002705613 0.1135087
0.049799062 -0.038300652 -0.019107338 -0.14909846 0.099940404 -0.043773614 0.018824523 -0.01613378
0.12767173 0.1543508 0.061142493 -0.11209569 -0.0054922025 0.14304672 -0.16363 -0.11203772
0.11281167 0.044222992 0.084983915 -0.108824514 -0.03674866 0.07066149 -0.036510274 0.03868632
0.10217698 0.14017953 -0.05227344 -0.10760707 0.04369377 -0.03959242 -0.0070463745 -0.109559886
-0.09256129 -0.09006583 -0.07655089 0.0013246518 0.036857374 0.07164321 0.12685844 -0.1275812
0.060151376 0.026842648 -0.052898273 0.014653497 0.06306933 0.10596211 0.0075462926 0.05810422
-0.098476574 -0.064369716 0.045524508 -0.076729715 -0.0168729 -0.0048055146 0.049659017 -0.09008861
0.085990556 0.07335124 -0.03062584 0.11288068 -0.16246793 0.07756974 0.052887257 0.12868547
-0.029780947 -0.019713283 -0.00044537487 -0.05715781 -0.08049409 0.05017833 0.14909768 0.009602233

fc_int2.bias f4 [2]
00000000: 36e0 503c 3c50 883d
0.012748769 0.066559285

bngcn.weight f4 [30]
00000000: 3bf1 613f 9473 733f ea1d 873f 2d0f 4e3f
00000010: eed5 503f 9064 373f f45f 4e3f 0d51 103f
00000020: 8229 613f 1b7f 363f a9e5 4e3f 0e3c 1b3f
00000030: c904 6f3f 4ec3 293f a514 483f e7e5 513f
00000040: 3db1 6a3f 9f9e 883f 8649 4e3f e235 493f
00000050: 0ae6 6a3f 6af4 613f d913 783f 5a04 973b
00000060: 7a21 623f fbbd 5b3f 8938 793f aede 6c3f
00000070: 4c0d 503f 5b89 813f
0.88258713 0.95098233 1.0556004 0.80491906 0.8157643 0.7163782 0.8061516 0.56373674
0.8795396 0.712877 0.80819184 0.6063851 0.93366677 0.66313636 0.781565 0.8199143
0.91676694 1.0673407 0.8058094 0.78597844 0.9175726 0.8826357 0.96905285 0.004608673
0.8833233 0.8583676 0.9735189 0.9252728 0.8127029 1.0120043

bngcn.bias f4 [30]
00000000: 09ce 01bd d2db 003d 742b 343c f174 a53c
00000010: b2f9 c53c 24ed 863d 2d5c afbb 6a9d ed3d
00000020: 0882 3f3d 78a4 463d d636 733d 81a1 a5bd
00000030: eb12 e23d cc6a 103d 7947 c7bc f0e0 5b3d
00000040: 18d3 353d 42af 0c3d 8f48 afbc 61c7 cc3c
00000050: 3691 993d 7de4 633d 1451 243d 44cf 613c
00000060: caf8 81bc fbed b73d f07a 643d 6f7e 323d
00000070: c79e 853c 2e83 033c
-0.03169063 0.031459637 0.010996688 0.020197364 0.024166916 0.065882 -0.0053515644 0.1160229
0.046754867 0.048496693 0.059378468 -0.08087445 0.110387646 0.0352581 -0.024326073 0.053681314
0.044390768 0.034346826 -0.021396903 0.024997415 0.074984 0.055637825 0.040116385 0.013782326
-0.015865702 0.08980938 0.055781305 0.043577608 0.016311062 0.008026881
