graphinvent/best_model_noheavyatoms.pt (torch, 872695 bytes, 20 tensors)

weight f4 [30, 30]
0	0x3dfb7794	0.12278667
1	0xbd931e74	-0.07183543
2	0xbe33dd6a	-0.17564932
3	0x3dca7358	0.09885281
4	0xbd6f9cc0	-0.058499098
5	0x3e0af91a	0.13571587
6	0x3e06fd93	0.13182668
7	0x3dae6344	0.08515027
8	0x3cc011bd	0.023445958
9	0xbde1bc7c	-0.11022279
10	0xbd4c23e0	-0.0498389
11	0x3dc4b6b5	0.09605161
12	0xbdbf8741	-0.093519695
13	0x3df4db12	0.11955847
14	0xbd6926f2	-0.056921907
15	0xbe3084a5	-0.172381
16	0xbcf6a468	-0.030107692
17	0x3e2111f8	0.15729511
18	0x3d663d5c	0.05621086
19	0x3e1936f9	0.14962377
20	0x3e1368f3	0.14395504
21	0x3da5766e	0.08079229
22	0xbd382e89	-0.044966254
23	0xbe1571dc	-0.14594215
24	0x3e0b0c31	0.1357887
25	0x3da866a6	0.08222704
26	0xbd35e086	-0.044403575
27	0xbd374d14	-0.04475124
28	0x3e2bd7ef	0.16781591
29	0x3e107289	0.14106192
30	0xbd83796a	-0.06419642
31	0x3cd49adf	0.025952755
32	0xbd7fccf4	-0.062451318
33	0x3bfd2c02	0.0077261934
34	0x3d4ffc8b	0.050777953
35	0x3dfda10d	0.123842336
36	0xbd28603c	-0.0411074
37	0x3dd8b0d9	0.10580606
38	0x3db0b11c	0.08627531
39	0x3c78f5ba	0.0151953045
40	0xbdab0963	-0.083514
41	0x3d9a02ff	0.07520103
42	0x3e21c3c3	0.15797333
43	0x3daafa01	0.08348466
44	0xbdbbecb2	-0.091760054
45	0xbdcaf894	-0.09910694
46	0x3cda5be1	0.02665514
47	0x3d2a56c0	0.041586637
48	0x3d70baa9	0.058771763
49	0xbddd90c7	-0.1081863
50	0x3c8e37aa	0.017360527
51	0xbe368f60	-0.1782813
52	0xbd759470	-0.059956014
53	0xbe33873d	-0.17532058
54	0xbd624908	-0.05524543
55	0x3e24ef4b	0.16106908
56	0x3d17a7ec	0.037025377
57	0x3d8c05e5	0.06837062
58	0xbd24bbab	-0.040218037
59	0xbdbc357d	-0.091898896
60	0xbcc70cdd	-0.024298126
61	0xbd7b777f	-0.061393257
62	0x3ba074a3	0.0048967167
63	0x3dcd1c39	0.10015149
64	0x3dd6a04c	0.10479793
65	0xbdd62fa3	-0.10458305
66	0xbc1417fc	-0.009038921
67	0x3d988490	0.07447159
68	0x3e2ffb78	0.17185771
69	0xba9e5f27	-0.0012082801
70	0xbd04dc1c	-0.032436475
71	0x3db66b6b	0.08907207
72	0x3e362060	0.17785788
73	0x3e251fbd	0.16125388
74	0x3e2ec30e	0.17066595
75	0xbda09118	-0.078401744
76	0xbd9447f8	-0.072402894
77	0xbdad36f2	-0.084577456
78	0xbd1ad3c2	-0.037799604
79	0xbc6c3737	-0.014417461
80	0xbd58cc62	-0.05292929
81	0x3e1849b3	0.14871864
82	0xbd908305	-0.0705624
83	0x3e073824	0.1320501
84	0x3e104a10	0.14090753
85	0xbdf347a0	-0.11878896
86	0xbcc97250	-0.024590641
87	0xbe2525c2	-0.16127685
88	0x3df94d37	0.12172931
89	0x3e2bfbd2	0.1679528
90	0xbd9145f6	-0.07093422
91	0x3dc0a0ec	0.094056934
92	0x3d3545e8	0.04425612
93	0x3d7e2eac	0.06205623
94	0x3d9fd447	0.078041606
95	0x3b108e54	0.002205749
96	0x3bc41639	0.0059840945
97	0xbd0b93c7	-0.03407648
98	0xbde4d452	-0.111733094
99	0x3e3aacb6	0.18229946
100	0x3ddf357c	0.10898873
101	0x3dc1df35	0.094664015
102	0xbe3061e8	-0.17224848
103	0x3d9c6633	0.076366805
104	0xbde4c155	-0.11169688
105	0xbd6aeba4	-0.05735363
106	0x3de0eb1b	0.10982343
107	0x3d714cc4	0.0589111
108	0x3e03c4c2	0.12868026
109	0xbe2bc7e4	-0.16775471
110	0x3ddd2ade	0.10799192
111	0x3d2bacc1	0.041912798
112	0x3e22813d	0.15869613
113	0xbe24d3cc	-0.16096419
114	0x3debed5b	0.11519881
115	0xbe20721a	-0.15668526
116	0xbd6c2671	-0.057653848
117	0x3d2ccb02	0.04218579
118	0xbe25cc51	-0.16191222
119	0x3e129cbc	0.14317602
120	0x3d4cf347	0.050036695
121	0x3deddc59	0.116142936
122	0x3cd03ad3	0.025418675
123	0x3ddea62d	0.10871539
124	0x3deaea2b	0.11470445
125	0x3d831ae0	0.064016104
126	0xbd300eed	-0.042982984
127	0xbe1ac89b	-0.15115587
128	0xbe04dfd1	-0.12976004
129	0xbd2ae1fc	-0.04171942
130	0x3d5aef1a	0.05345068
131	0x3d94d7f6	0.07267754
132	0x3dffe58c	0.124949545
133	0xbc8d1531	-0.017222019
134	0x3e1b037b	0.15138046
135	0xbd9ba8a1	-0.07600523
136	0x3e1b9c8d	0.15196438
137	0x3dee5767	0.116377644
138	0xbe1735a3	-0.14766555
139	0x3de16a4a	0.11006601
140	0xbc7367bf	-0.014856278
141	0x3d89280a	0.0669709
142	0xbe293bae	-0.16526672
143	0x3e2b287c	0.16714662
144	0xbd906620	-0.07050729
145	0xbd2c4081	-0.042053703
146	0xbd63b8ab	-0.055596035
147	0x3e0d05d8	0.1377176
148	0x3dc2fbce	0.09520684
149	0x3b88ec0d	0.00417853
150	0xbc9e85a1	-0.019350829
151	0xbd2a6e12	-0.041608877
152	0xbe29d8a0	-0.16586542
153	0xbae454f3	-0.0017420336
154	0x3e1a05f2	0.1504133
155	0xbc33505a	-0.01094445
156	0xbdcb2fbd	-0.09921215
157	0x3d2e661f	0.04257786
158	0x3e0af271	0.13569047
159	0xbd2099a7	-0.039209034
160	0xbe2411df	-0.16022442
161	0xbe0d7f15	-0.13818009
162	0x3c13a886	0.009012347
163	0xbe07fcfa	-0.13280097
164	0x3c0f625b	0.008751477
165	0xbe11a124	-0.14221627
166	0x3e25d095	0.16192849
167	0xba6d55c4	-0.00090536126
168	0xbe31aa32	-0.1735008
169	0xbe2d00ab	-0.16894786
170	0x3d4c0ecf	0.04981881
171	0x3d9f034f	0.07764303
172	0x3e178cbc	0.1479978
173	0xbdc9fa6c	-0.09862217
174	0xbd34e487	-0.044163253
175	0xbe3488ee	-0.1763036
176	0x3df07e7e	0.117428765
177	0x3e0b575c	0.13607544
178	0xbe1d76b1	-0.15377308
179	0x3ce6b9ce	0.02816477
180	0xbdfc56f2	-0.12321271
181	0xbd09453d	-0.033513296
182	0x3dc30d46	0.09524016
183	0x3b96093a	0.0045787366
184	0x3df1f4ff	0.118143074
185	0xbdff8ada	-0.12477656
186	0xbdd6feea	-0.1049784
187	0xbd54c933	-0.05194969
188	0x3e19517c	0.1497249
189	0xbe03e720	-0.12881136
190	0xbd1d9a74	-0.038477376
191	0x3d630ca3	0.055431973
192	0xbcb24663	-0.021762079
193	0xbcf9e5f3	-0.030505156
194	0x3e1214b1	0.14265706
195	0x3c93fae9	0.01806398
196	0x3d9afed9	0.075681396
197	0x3ddaa95c	0.10676834
198	0xbe35f4df	-0.17769192
199	0x3cfa8e48	0.030585423
200	0xbd17f197	-0.037095632
201	0xbdf241df	-0.1182897
202	0x3d60a3b2	0.054843612
203	0xb7530e46	-1.2579903e-05
204	0xbd2123e2	-0.03934086
205	0xbd8aad12	-0.06771292
206	0x3e0ee23e	0.13953492
207	0x3e12cdbd	0.14336295
208	0xbdbc308c	-0.09188947
209	0xbdd5e5ec	-0.10444245
210	0x3da053ee	0.07828508
211	0xbd914e05	-0.07094959
212	0xbe281f68	-0.1641823
213	0xbc583245	-0.013195579
214	0xbc2bbbae	-0.010481758
215	0x3e181105	0.14850242
216	0x3e0635ac	0.13106412
217	0x3dd327fb	0.1031036
218	0xbd48c4cd	-0.04901581
219	0xbe0dfb47	-0.13865386
220	0x3cbb7952	0.022884998
221	0x3e3518e1	0.17685272
222	0x3d3798f0	0.044823587
223	0x3d910fb7	0.070830755
224	0xbca8e700	-0.020617962
225	0xbdf417fa	-0.11918636
226	0x3db14ac7	0.08656841
227	0xbcfa57a5	-0.03055937
228	0xbd49dfad	-0.04928558
229	0xbda813da	-0.082069114
230	0xbdf459c9	-0.11931188
231	0x3d969500	0.07352638
232	0x3dc7b8f7	0.09752076
233	0x3c92f941	0.01794112
234	0xbd48af25	-0.048995156
235	0xbd8a3e54	-0.067501694
236	0xbdbf54b7	-0.0934233
237	0x3e0aa657	0.13540016
238	0xbc844cca	-0.016149897
239	0xbd2979f3	-0.041376065
240	0x3dc7c4ec	0.09754357
241	0x3d9f1716	0.07768075
242	0xbdbbd669	-0.09171755
243	0x3de18e05	0.11013416
244	0xbcecec1a	-0.028921176
245	0xbd5de0ee	-0.054169588
246	0xbc474ed2	-0.012164788
247	0xbdf2a9d3	-0.11848798
248	0xbdc66cd4	-0.09688726
249	0xbda00d78	-0.07815069
250	0x3e171cce	0.14757082
251	0x3daea76a	0.085280254
252	0xbd107ba8	-0.035274178
253	0x3de8f523	0.11374881
254	0x3e06f51e	0.13179442
255	0x3da92813	0.08259597

bias f4 [30]
0	0x3da00997	0.07814329
1	0xbe2d54be	-0.16926858
2	0x3e02e6be	0.12783334
3	0x3d72f355	0.05931409
4	0x3da4a453	0.08039155
5	0x3e322b9b	0.17399447
6	0xbcaeef93	-0.021354472
7	0xbdaf22e1	-0.085515745
8	0x3dd12e89	0.10213954
9	0x3d1490ce	0.03627091
10	0x3df8c535	0.12146989
11	0xbd8390d7	-0.064241104
12	0x3d5289d7	0.051400986
13	0xbdc76e10	-0.0973779
14	0xbe1e6109	-0.15466703
15	0xbe122b09	-0.14274229
16	0x3d80c80c	0.06288156
17	0x3dd26ea8	0.10275012
18	0xbdb144c4	-0.08655694
19	0xbdb87040	-0.09005785
20	0xbd8ffe32	-0.07030906
21	0x3c562d7e	0.01307237
22	0x3e09d9a9	0.13461937
23	0xbaee3bcf	-0.0018175783
24	0xbe0dbfdd	-0.13842721
25	0xbcc6634d	-0.024217272
26	0xbd8ca170	-0.06866729
27	0x3dce2a86	0.100667045
28	0x3da60673	0.08106699
29	0x3d439e7a	0.047758557

weight f4 [512, 30]
0	0xb8a7d21c	-8.0023165e-05
1	0xb9554039	-0.00020337188
2	0x39a87572	0.0003213096
3	0xbb62a76e	-0.003458466
4	0x3c0ff733	0.008786964
5	0x3b38b574	0.0028184326
6	0x3aaed27e	0.0013337878
7	0x3b0ba135	0.0021305804
8	0x3bb9dacb	0.005671834
9	0x3a72900a	0.0009253031
10	0x3b962429	0.0045819473
11	0x3bf6812a	0.007522722
12	0x3baaf2c6	0.005216929
13	0xbbd21a45	-0.006411823
14	0x3a61e1fd	0.0008616744
15	0x3b1ab1f1	0.0023604596
16	0x3c4c7176	0.012478223
17	0x3b826119	0.00397886
18	0x3b05ac7b	0.0020396996
19	0x3bb1eeda	0.0054300847
20	0xbbed41f8	-0.00724053
21	0xbc7fae30	-0.015605494
22	0x3c6b9ccc	0.014380645
23	0x3ae76a03	0.0017655495
24	0xbb6c56e8	-0.0036062542
25	0xbb0a9e98	-0.0021151658
26	0x3b42dc35	0.0029733304
27	0xbbb3088c	-0.0054636654
28	0x3be61f43	0.0070227697
29	0xb9569342	-0.00020463488
30	0xbcc5654a	-0.02409615
31	0xbe53c369	-0.20680012
32	0x3df0f325	0.11765126
33	0x3bbebf46	0.0058211414
34	0xbd2af41a	-0.0417367
35	0xbdec772f	-0.1154617
36	0x3e0dc992	0.13846424
37	0xbd8c6ed4	-0.06857076
38	0xbd660659	-0.056158397
39	0xbe68ff9e	-0.2275376
40	0xbe198daf	-0.14995454
41	0xbe9123fb	-0.28347763
42	0xbe2c5ac5	-0.16831501
43	0x3cec2372	0.028825495
44	0x3d1b129c	0.037859544
45	0x3da62f1c	0.08114454
46	0xbdc48eae	-0.095975265
47	0xbdd4ffa8	-0.10400325
48	0xbcde1514	-0.02710966
49	0xbe2785e0	-0.16359663
50	0xbd652b76	-0.05594965
51	0xbda4c11e	-0.08044647
52	0x3e28df42	0.16491416
53	0xbdbe5cf2	-0.09295072
54	0xbe05ceaf	-0.13067125
55	0x3deddc28	0.11614257
56	0x3daf5677	0.08561414
57	0x3e55bfa0	0.2087388
58	0x3dc07c6b	0.09398731
59	0x3d14596c	0.03621809
60	0x3a88cfaa	0.0010437865
61	0x3b0ed4d5	0.0021794338
62	0x3c6cca04	0.014452461
63	0x3c3553dd	0.011067358
64	0x3b5816d2	0.0032972586
65	0x3c98f3f9	0.018671023
66	0x3c14f4d8	0.009091578
67	0x3b584dce	0.003300536
68	0x380955ea	3.274336e-05
69	0x3c4e7f71	0.012603627
70	0x3cb795bc	0.022410266
71	0xbc0c4b18	-0.008562826
72	0xb9e2b156	-0.00043238205
73	0x3c0e5ac6	0.008688634
74	0x3bc64dc6	0.006051752
75	0x3a223107	0.0006187115
76	0xba9ab48d	-0.0011803076
77	0xbbfbf4f4	-0.007689113
78	0x3cb0d338	0.021585092
79	0x3b94fe66	0.004546928
80	0x3be065c7	0.0068480703
81	0x3a4d78ee	0.00078381493
82	0xbbf3f8fa	-0.007445452
83	0x3c9891eb	0.018624267
84	0x3cdb834f	0.026796011
85	0x3b681037	0.0035410055
86	0xbb2cfe1a	-0.0026396574
87	0x3bdf533b	0.0068153418
88	0x3be24ea8	0.006906349
89	0xbbaf0865	-0.005341577
90	0xbbaa9d03	-0.0052067055
91	0xbbf6b691	-0.007529088
92	0x3dd0e2c1	0.101995
93	0xbabd3325	-0.0014434798
94	0xbd7c3276	-0.06157156
95	0x3d3a9eda	0.04556165
96	0xbd3001f4	-0.042970613
97	0xbddf8066	-0.10913162
98	0xbd8d3e30	-0.06896627
99	0x3d2657d2	0.040611096
100	0x3aed5bb3	0.0018108994
101	0x3cf15b51	0.029462488
102	0xbda62dc9	-0.081142016
103	0xbc800093	-0.015625274
104	0x3d842e42	0.064541355
105	0xbd5f903d	-0.054580916
106	0xbdf76d33	-0.12081375
107	0x3cfccbff	0.030858992
108	0x3cea1bf9	0.028577792
109	0x3ca78273	0.020447945
110	0x3e1753ae	0.14778015
111	0x3bc6f5ce	0.0060717827
112	0x3a4f7de6	0.00079151837
113	0xbd19ec76	-0.037579022
114	0x3d7458d3	0.059655022
115	0x3e118710	0.14211679
116	0x3d93d43f	0.07218217
117	0xbaa3e476	-0.0012504
118	0x3cfb4752	0.030673657
119	0xbd4b6587	-0.04965737
120	0xbd92e6bc	-0.07172915
121	0xbd3f1f3b	-0.046660643
122	0x3bf790a3	0.007555084
123	0xbdb4a2e8	-0.088201344
124	0xbe6335ca	-0.22188488
125	0xbcfa09d8	-0.030522272
126	0xbdf2a679	-0.118481584
127	0xbdaee9e2	-0.08540703
128	0xbcaae7a9	-0.020862417
129	0xbd12b29f	-0.035814878
130	0x3dddc8e9	0.10829336
131	0xbe06e2fe	-0.13172528
132	0x3e7a3fb8	0.2443837
133	0x3e130896	0.14358744
134	0xbde482b6	-0.11157744
135	0xbcb8df9d	-0.022567565
136	0xbc9ceda5	-0.019156286
137	0xbdcfb912	-0.10142721
138	0x3d353c0b	0.044246715
139	0x3e5c3ffa	0.2150878
140	0x3c543fb9	0.012954646
141	0x3e171a1e	0.14756057
142	0x3e2117cd	0.15731736
143	0xbe85dad8	-0.26143527
144	0xbe5c9829	-0.2154242
145	0x3be73cbc	0.0070568006
146	0x3e0ccacd	0.13749237
147	0x3e6f2994	0.23355705
148	0x3c01d110	0.00792338
149	0x3c40ad2a	0.0117600355
150	0x3b9f5b92	0.004863211
151	0xb9ebaba4	-0.00044950575
152	0x3bf89795	0.0075864294
153	0x3b4903f3	0.003067252
154	0x3af2e7af	0.0018532182
155	0x3bcdb5ed	0.0062777908
156	0x3b929355	0.0044731298
157	0x3b3001aa	0.002685646
158	0x3afef6ca	0.0019452211
159	0x3b00c37e	0.0019647772
160	0x3b801927	0.0039092484
161	0x3bf2823d	0.0074007795
162	0x3acfaa17	0.0015843537
163	0x3b9709c6	0.0046093194
164	0x3a9e68b2	0.0012085645
165	0x3b9080a9	0.0044098687
166	0x3ae8dd6e	0.0017766187
167	0x3b2b4327	0.0026132555
168	0x3bba6fac	0.005689582
169	0x3b07d258	0.002072474
170	0x3c482f93	0.012218374
171	0xbb087607	-0.0020822303
172	0xbb9d45c0	-0.0047995746
173	0x3c4b883a	0.012422616
174	0x3b8b815c	0.004257364
175	0x3c1666a2	0.009179743
176	0x3bc547aa	0.006020506
177	0x3bb4952b	0.0055109463
178	0x3bc0fa7a	0.005889234
179	0xbbc80b0f	-0.006104834
180	0xbe09cf87	-0.13458072
181	0xbcc226ad	-0.023700083
182	0xbe28007c	-0.16406435
183	0xbd613096	-0.054977976
184	0x3e316d3c	0.17326826
185	0xbe019544	-0.12654597
186	0xbdc3f3f6	-0.09568016
187	0x3d937b28	0.072012246
188	0x3d44b447	0.04802349
189	0x3d326e23	0.043562066
190	0x3d830c1a	0.063987926
191	0x3d03a8a7	0.03214326
192	0x3e3d3e65	0.18480833
193	0xbddf5653	-0.10905137
194	0xbde39e8f	-0.11114227
195	0x3d28d8b8	0.041222304
196	0xbdb06b53	-0.086142205
197	0xbdcb5529	-0.099283524
198	0x3d82c064	0.06384352
199	0xbe3452a9	-0.17609657
200	0xbe08d06a	-0.13360754
201	0x3cf6ed03	0.030142313
202	0x3e478f46	0.19488248
203	0xbe3c00af	-0.18359636
204	0xbe1008ce	-0.14065859
205	0xbd828419	-0.06372852
206	0xbd8a7f39	-0.06762547
207	0xbd74c0fa	-0.05975435
208	0xbd3b8734	-0.045783237
209	0x3e03b9d6	0.1286386
210	0x3d0d50a6	0.03450074
211	0x3de3e821	0.111282595
212	0xbdd86b02	-0.10567285
213	0x3ab5cd20	0.0013870336
214	0x3d97a720	0.074049234
215	0xbcd0ff5a	-0.025512386
216	0x3ae4c3d0	0.0017453376
217	0x3d99f662	0.07517697
218	0x3c3ee219	0.011650586
219	0x3da2d858	0.079514205
220	0x3defd729	0.117109604
221	0xbd2ffbe3	-0.042964827
222	0x3d980db8	0.07424492
223	0x3c0e4c24	0.0086851455
224	0xbc2a87f3	-0.010408389
225	0xbdede3f1	-0.11615742
226	0xbe1a6e25	-0.1508108
227	0xbd2de055	-0.042450268
228	0xbd91758d	-0.07102499
229	0x3cfb0a94	0.030644692
230	0xbc9e94a5	-0.019357989
231	0xbdb8bfcc	-0.09020957
232	0x3e3338de	0.17502162
233	0xbb145e25	-0.0022639122
234	0xbe134bc0	-0.14384365
235	0x3d51126e	0.051042967
236	0x3c64543d	0.0139361
237	0x3ccac3e9	0.02475162
238	0xbd50636f	-0.050876077
239	0xbd359dd6	-0.044339977
240	0xbb47c21e	-0.0030480693
241	0xbd15dccf	-0.036587533
242	0xbd5296a2	-0.051413186
243	0x3c9bcca1	0.019018473
244	0x3c2d808e	0.010589732
245	0x3c924534	0.017855264
246	0x3bb8e144	0.005642088
247	0xbc07f147	-0.008297271
248	0xbaaa46ea	-0.0012991105
249	0xbb9ecae1	-0.0048459624
250	0x3bcd7f07	0.0062712464
251	0xbd07cd5c	-0.03315483
252	0xbd9880ac	-0.07446417
253	0x3d050de8	0.032483965
254	0xbb9f1f14	-0.0048559997
255	0x3adab955	0.0016687313

bias f4 [512]
0	0xb99562e6	-0.0002849318
1	0x3c88ca2e	0.01669797
2	0xba33432a	-0.00068383163
3	0xbb356386	-0.0027677729
4	0xbd09e6e2	-0.033667453
5	0xbae123a9	-0.0017176765
6	0x3cba6bfb	0.022756567
7	0xbb29b1be	-0.0025893296
8	0x3a732c1e	0.00092762883
9	0x3ba75ce4	0.005107509
10	0xbcd087da	-0.025455404
11	0x3a65b334	0.000876236
12	0x3b076ddc	0.0020664847
13	0xbbab898b	-0.0052349023
14	0x3905d1c2	0.0001276201
15	0xb9f84883	-0.00047356272
16	0xbbcc342e	-0.0062318062
17	0x39399682	0.00017699043
18	0xba540fa4	-0.0008089489
19	0xba924e08	-0.0011162171
20	0x3affe08c	0.0019521876
21	0xb94c8fc1	-0.00019508509
22	0xb9087e2e	-0.00013016976
23	0x395cd843	0.00021061399
24	0x39bf0bec	0.0003643924
25	0xbcb001b9	-0.021485196
26	0xbaec2938	-0.0018017655
27	0xbb8d3a5d	-0.004309936
28	0xbc1e576a	-0.009664396
29	0xba260b43	-0.00063340756
30	0xb9a9cba6	-0.00032385922
31	0xbbaed752	-0.005335727
32	0xbb8d5b9b	-0.0043138987
33	0xbc48b19f	-0.012249379
34	0x39aa7984	0.00032515463
35	0xbbee797a	-0.0072776647
36	0x3ccb4d2f	0.024817077
37	0xbcc8c403	-0.024507528
38	0x3b430c9a	0.002976215
39	0x3c3fa111	0.011696116
40	0x3c6f0d43	0.014590564
41	0x3a04076f	0.0005036508
42	0x3a02835f	0.0004978682
43	0xbc0c08bc	-0.008547004
44	0xbc9d0871	-0.019169064
45	0x3bd7f7bc	0.0065908115
46	0xbc1db212	-0.009624975
47	0xbc20851f	-0.009797364
48	0x3a4bc334	0.0007772923
49	0xba9ac629	-0.0011808324
50	0xba6940e4	-0.0008897914
51	0xbb363d71	-0.0027807618
52	0x36e853b0	6.9238813e-06
53	0x3c8358d0	0.01603356
54	0xb9404052	-0.00018334508
55	0xbb562433	-0.0032675385
56	0xbad181e2	-0.0015984143
57	0x3d282058	0.04104647
58	0xbb9eeb26	-0.004849809
59	0xbb849469	-0.004046012
60	0xb9f7a926	-0.00047237537
61	0x3ce8bf97	0.02841167
62	0x3a0052a9	0.000489513
63	0x3c2d365e	0.010572044
64	0xbc410d18	-0.011782907
65	0xbc292a25	-0.010324989
66	0xba2fc905	-0.00067056745
67	0xba835aef	-0.0010021607
68	0x3aca1c15	0.0015419746
69	0x3912600e	0.00013959428
70	0xbb16c965	-0.0023008224
71	0xbbcb439d	-0.0062031285
72	0xbc78dace	-0.015188886
73	0x393d2a22	0.0001804014
74	0xba063a5a	-0.00051203894
75	0xbcc0663d	-0.023486251
76	0xbbdac7dd	-0.0066766576
77	0xb905bae9	-0.00012753498
78	0x383c7418	4.4930814e-05
79	0x3cb4e084	0.022079714
80	0x3b2df5e2	0.0026544263
81	0xbbeca1be	-0.0072214296
82	0xbb8e060c	-0.004334217
83	0x392d7ac6	0.00016544302
84	0x3a16cc0e	0.00057524524
85	0x3b268a80	0.0025412142
86	0x3ab75719	0.0013987749
87	0x3c9cee50	0.019156605
88	0xba2f35e9	-0.00066837535
89	0xbb817dc7	-0.0039517614
90	0xb8052e00	-3.1752512e-05
91	0xbcc2370d	-0.02370789
92	0xbba449c3	-0.005013676
93	0x3bea88f1	0.007157438
94	0xbb10342a	-0.0022003748
95	0xbc824f10	-0.01590684
96	0xbb34d017	-0.0027589852
97	0xbce42c5c	-0.027853183
98	0xbb474a16	-0.003040915
99	0xbba2f61d	-0.0049731866
100	0xbc373af7	-0.011183492
101	0xbb8f03f5	-0.0043644854
102	0x39cf9f3c	0.00039600756
103	0x39f6e2d8	0.00047089788
104	0xbc9b5ca1	-0.018965067
105	0xbc8d94ff	-0.017282961
106	0xba6dcf28	-0.0009071701
107	0x3b3a25e0	0.0028403923
108	0x3bb307ab	0.0054635606
109	0x3a1ace4f	0.0005905376
110	0xbb6ac36a	-0.0035822042
111	0xbc60969c	-0.013707783
112	0x3ba978e2	0.005171881
113	0xbb841fa8	-0.004032094
114	0x3b5f986a	0.0034117945
115	0x3c56034e	0.013062311
116	0xbbc0cebe	-0.0058840206
117	0x3843fb94	4.6725923e-05
118	0xbc549295	-0.012974401
119	0xbc974a22	-0.018467966
120	0xba8d7daa	-0.0010794897
121	0xb9f343c2	-0.00046399055
122	0xbb86a668	-0.0041091926
123	0x3b1f303c	0.0024290225
124	0xbaaafc55	-0.0013045172
125	0xbab78874	-0.0014002458
126	0xbd35b33b	-0.04436038
127	0xbd3a2fde	-0.045455806
128	0xbce7e42f	-0.028307049
129	0xbb884b52	-0.0041593695
130	0x3a887f11	0.0010413845
131	0x3c2ddf74	0.010612357
132	0x3ce3b266	0.027795028
133	0xba42ddab	-0.0007433544
134	0xbb2af7f6	-0.0026087738
135	0xbc219447	-0.009862012
136	0xba0aaba5	-0.0005289859
137	0xba3668a4	-0.00069583417
138	0xbab94a1b	-0.0014136465
139	0x37b1ad34	2.1180698e-05
140	0xb948da40	-0.00019154791
141	0x3b97b8c2	0.004630179
142	0xba3784a8	-0.00070006633
143	0x3b03ee17	0.0020130926
144	0x3c325efd	0.010886905
145	0xba0453c0	-0.000504788
146	0xb73c96e4	-1.1240805e-05
147	0x3b56d16d	0.0032778636
148	0x3befe184	0.0073205847
149	0xba252c4f	-0.0006300853
150	0xbd231f84	-0.039824978
151	0x37205190	9.555733e-06
152	0xbbfb3631	-0.007666372
153	0xbb003fcc	-0.0019569276
154	0xbba569b0	-0.0050479993
155	0xb90f5d24	-0.0001367224
156	0xb9f6fed8	-0.0004711065
157	0x3b72fcac	0.0037076874
158	0x3d773647	0.060354497
159	0xba646961	-0.00087132124
160	0x3d34964d	0.04408865
161	0xb9e7a73f	-0.00044184361
162	0xbb98a1a4	-0.004657941
163	0xba3fd9ee	-0.0007318546
164	0x39f72e1d	0.00047145868
165	0x3ca1f67b	0.019770851
166	0xbb76e517	-0.003767317
167	0x3a990b9e	0.0011676436
168	0x3b825d51	0.0039784093
169	0x3b8ea9d1	0.00435374
170	0xbcbb3c0e	-0.022855785
171	0x389ef963	7.580479e-05
172	0x3a043bde	0.00050443213
173	0xb841a610	-4.6169444e-05
174	0xbb992c67	-0.0046744826
175	0xbaad50d9	-0.0013222947
176	0xb9a4708a	-0.00031364366
177	0x3c82fdc1	0.01599014
178	0x3c5f2531	0.013619707
179	0x39a2fef4	0.00031089003
180	0x3b0e95ca	0.0021756762
181	0xbb18c897	-0.002331292
182	0x3a2de45d	0.0006633455
183	0x3bce4ab8	0.0062955283
184	0xbaf144e8	-0.0018407376
185	0xbc2059c7	-0.00978703
186	0xbcc30f4e	-0.023811009
187	0xbc5623c8	-0.013070054
188	0xba97c4e9	-0.001157907
189	0xba14fbd8	-0.00056832796
190	0xb9cb389e	-0.0003876136
191	0x3ba9b6a4	0.005179243
192	0xbcb3c04c	-0.02194228
193	0x3bf49092	0.007463523
194	0xbb8907c0	-0.004181832
195	0x3ca0bac1	0.019620301
196	0xbb6a03cf	-0.0035707837
197	0xbc1a669c	-0.009423878
198	0xbbb64d89	-0.005563442
199	0xba1609dd	-0.00057235156
200	0xbad4f9d2	-0.0016248769
201	0x3be2e2ac	0.006923994
202	0x39bc7839	0.00035947727
203	0x3a60f70e	0.0008581736
204	0xbbbea57d	-0.0058180676
205	0xbb2975b4	-0.002585751
206	0x3c057af4	0.00814699
207	0xbb56897c	-0.0032735756
208	0xb9b1eef5	-0.00033938108
209	0xb8f23993	-0.00011550183
210	0x39d64878	0.00040871254
211	0x3c35fb98	0.011107348
212	0xbb052029	-0.0020313358
213	0xbb972901	-0.0046130423
214	0x3bb0157c	0.005373655
215	0xbb863922	-0.004096166
216	0x3bbdce6b	0.005792429
217	0xb9ff8228	-0.00048734364
218	0xbca8a818	-0.020587966
219	0xbc27959c	-0.010228541
220	0x3ca3d244	0.019997723
221	0x3bb66fda	0.005567533
222	0xb8ddfd2f	-0.0001058526
223	0x3a06f684	0.0005148428
224	0xbd10a369	-0.03531209
225	0xbb01aaa3	-0.0019785545
226	0xbd105c9f	-0.03524458
227	0x3c07ac1e	0.008280782
228	0xba95fc2a	-0.0011442949
229	0xbd2ed1b7	-0.04268047
230	0x3cb25529	0.021769123
231	0xbb0b6edd	-0.0021275796
232	0xba025bfb	-0.00049728126
233	0x3a7d9cef	0.0009674569
234	0xbb434a74	-0.0029799016
235	0xbb0a9194	-0.00211439
236	0xba3502d4	-0.00069050235
237	0x3b18dc40	0.0023324639
238	0x3c26e955	0.010187467
239	0xbc0bbd73	-0.008529055
240	0x3be83d2d	0.007087371
241	0xba6d313a	-0.0009048168
242	0xbc87ccf5	-0.016577223
243	0xbbc09be8	-0.0058779605
244	0x3b984843	0.004647286
245	0x3afeb6d8	0.0019433154
246	0xb918cda0	-0.00014572451
247	0x38b26dda	8.508163e-05
248	0x3a102937	0.00054993056
249	0xbc8c75bb	-0.017145982
250	0xba2c5cfc	-0.0006575135
251	0x39bd09c9	0.0003605618
252	0xb7635cd0	-1.3551864e-05
253	0xbaa602ee	-0.0012665668
254	0xbc23f720	-0.01000765
255	0xb8e882bb	-0.000110869725

weight f4 [256, 512]
0	0xbb299b04	-0.002587975
1	0x3cf058eb	0.029339274
2	0x3c5f74a5	0.01363865
3	0x3d6d4765	0.057929415
4	0x3cd90415	0.026491204
5	0xbbe1dc38	-0.006892707
6	0x3d3ab645	0.045583982
7	0xbd1ebf58	-0.0387567
8	0x3ad9117e	0.0016560999
9	0xbccfde8d	-0.025374675
10	0xbd435ab9	-0.04769394
11	0xbbc419ac	-0.0059845056
12	0xbd1bab0e	-0.038004927
13	0xbc9ba32c	-0.018998705
14	0x3c2eb3c9	0.010662981
15	0x3a012ed7	0.0004927939
16	0xbcf55a21	-0.029950203
17	0xbc31852e	-0.010834975
18	0x3bbc17aa	0.0057401257
19	0xbb89fbf2	-0.0042109424
20	0xbce394ef	-0.027780978
21	0xbb8d0733	-0.0043038367
22	0xba1a24db	-0.00058801257
23	0xbc062b18	-0.008188985
24	0xba0bc408	-0.000533164
25	0xbca426a3	-0.020037955
26	0x3c9f004f	0.019409327
27	0x39831fc8	0.00025009946
28	0x3ba900dd	0.0051575736
29	0x3a80c313	0.0009823762
30	0x3946fb8c	0.0001897646
31	0xbcb7ff89	-0.022460716
32	0xbc8c086b	-0.017093858
33	0xbd967270	-0.07346046
34	0xbc850f57	-0.016242666
35	0x3c903318	0.017602488
36	0xbc5a6773	-0.013330328
37	0x3a50179a	0.0007938087
38	0xbc6e5d4e	-0.014548613
39	0x3ca82a18	0.020527884
40	0xbcda9bb4	-0.026685573
41	0x3b91a5f9	0.0044448343
42	0xbc1d2b4a	-0.00959284
43	0xbce4e7e5	-0.027942607
44	0xbd3805ae	-0.04492729
45	0xbd100278	-0.035158604
46	0x3da1d01d	0.079010226
47	0xbcc8b7d6	-0.024501722
48	0xbcf3f1d1	-0.029778393
49	0xbbfbf8d2	-0.007689574
50	0x3b46c15f	0.003032766
51	0xbc046d97	-0.008082769
52	0x3ab00dc4	0.0013431837
53	0xbb7ad1f6	-0.003827212
54	0xbcee0548	-0.029055253
55	0x3d247c1f	0.040157434
56	0xbc3f57fc	-0.011678692
57	0x3d165184	0.036698833
58	0xbd560bd1	-0.052257363
59	0xbc7bf060	-0.015377134
60	0xbb2c27c1	-0.0026268812
61	0xbbd820cf	-0.006595708
62	0xbdbdf113	-0.09274497
63	0x3d42f011	0.047592226
64	0x38c9f8c0	9.63076e-05
65	0xbbb6e48e	-0.005581445
66	0xbc4f3bc5	-0.0126485275
67	0xbc1bdab7	-0.009512595
68	0xbcaabfdc	-0.020843439
69	0xbcab7c0a	-0.02093317
70	0xbcaaef6c	-0.020866118
71	0x3d3e8e3c	0.046522364
72	0xbd9d9694	-0.07694736
73	0x3cd373a4	0.025811978
74	0x3ca86858	0.020557567
75	0xbccdad5c	-0.025107078
76	0xbd4a0f9f	-0.049331304
77	0xbcd13f4e	-0.025542881
78	0xbc1441c3	-0.009048882
79	0x3b867a9e	0.0041039726
80	0xbc9e0e2d	-0.019293869
81	0xbbf5c60d	-0.007500416
82	0xbbcb1f3a	-0.006198791
83	0xb9d313c6	-0.00040259789
84	0xbc24b0aa	-0.010051886
85	0xbbc6b821	-0.0060644303
86	0xbc88ca66	-0.016698074
87	0xbb858856	-0.0040750904
88	0xbaf564f6	-0.0018722105
89	0xbc6d6afc	-0.014490839
90	0xbd77b06c	-0.060470983
91	0xbd20ff69	-0.039306078
92	0x3cb2c35e	0.021821674
93	0xbd1fcce8	-0.039013773
94	0xbc36f23b	-0.011166151
95	0xbdd46787	-0.10371309
96	0x3d4dd3ee	0.05025094
97	0xbd258fb4	-0.04042025
98	0xbcd71ba2	-0.026258294
99	0x3c02b74a	0.00797827
100	0x3b2e6f00	0.0026616454
101	0xbbc695d3	-0.006060341
102	0xbc0f1cfe	-0.00873494
103	0xbbbbd83e	-0.005732565
104	0x3d01b2bf	0.031664606
105	0x3b4283ca	0.0029680603
106	0xbd618bb3	-0.05506487
107	0x3b8d3047	0.0043087336
108	0xbcd5dcb1	-0.02610621
109	0x3c64c740	0.0139635205
110	0xbca462e1	-0.02006668
111	0xbd694da2	-0.056958802
112	0x3d54dde3	0.05196942
113	0x3df7c314	0.12097755
114	0x3e026b6a	0.12736288
115	0xbd1fea70	-0.039041936
116	0x3dd6d45f	0.10489725
117	0x39d5cb3a	0.00040777941
118	0xbd6d0fe4	-0.057876483
119	0xbc454ae8	-0.012041785
120	0xbaf81a61	-0.001892876
121	0xbb09476b	-0.002094711
122	0x3a3035f7	0.00067219086
123	0xbc0df7ae	-0.0086650085
124	0xbc0ab222	-0.008465322
125	0xbd7baf92	-0.061446734
126	0x3d388066	0.045044325
127	0xbcd682e0	-0.026185453
128	0x3d02d1ce	0.031938367
129	0x3bf6cb43	0.007531555
130	0x39b61507	0.00034729412
131	0xbc05ad0a	-0.0081589315
132	0xbda6bb89	-0.08141238
133	0xbc8b0c47	-0.016973628
134	0x3c2a87a6	0.010408318
135	0xbda5d66a	-0.08097537
136	0xbb2dd65e	-0.0026525478
137	0xbca912d7	-0.020638866
138	0xbb1e9a49	-0.0024200848
139	0x3ca67d7a	0.020323504
140	0x3b3152f2	0.0027057496
141	0xbb0ca544	-0.002146081
142	0xbb4622c3	-0.0030233122
143	0xbc1166e6	-0.008874631
144	0xbca609fe	-0.020268437
145	0xbcfe55ed	-0.031046832
146	0xbbf8f10e	-0.0075970953
147	0xbccd5d02	-0.025068764
148	0x3acc81ae	0.0015602612
149	0xbb15f0b8	-0.0022879075
150	0x3dd0c15c	0.101931304
151	0x3bcfc2f2	0.006340378
152	0x3b50473e	0.0031780745
153	0xbb638e98	-0.0034722444
154	0xbcdd3b4c	-0.027005814
155	0xbb076da0	-0.0020664707
156	0xbc94132a	-0.018075544
157	0x3d607dee	0.054807596
158	0xbd73e8cd	-0.059548188
159	0xba9d8b94	-0.0012019747
160	0xbd9b84da	-0.07593699
161	0x3b51a332	0.003198814
162	0xbcf9c7f3	-0.030490851
163	0x3c927d20	0.01788193
164	0xbc88f98c	-0.016720556
165	0xbd53dd7d	-0.0517249
166	0xbada73f6	-0.0016666639
167	0xbd94bf86	-0.07263093
168	0xbcbe6bf5	-0.023244837
169	0x3db6a31c	0.089178294
170	0xbd71529d	-0.058916677
171	0xbc81daab	-0.01585134
172	0xbc7eb7aa	-0.015546719
173	0xbc5879de	-0.013212649
174	0xbb6ad9c5	-0.0035835367
175	0xbca32537	-0.019915206
176	0xbc238d6f	-0.009982451
177	0xbda3584e	-0.07975827
178	0x3d0107ea	0.031501688
179	0xbe2ca5e2	-0.16860154
180	0xbcc0e2f6	-0.023545723
181	0xbc00dc53	-0.007865029
182	0x3cc6db80	0.024274588
183	0x3d340867	0.043953326
184	0x3d000668	0.03125611
185	0xbca6e290	-0.020371705
186	0x3c156957	0.009119353
187	0x3c4811b2	0.01221125
188	0x39236448	0.00015582249
189	0xbc2fb85b	-0.010725106
190	0xbbe51b68	-0.0069917925
191	0x3cdead2b	0.027182182
192	0xbb783a6c	-0.003787662
193	0xbb597b9f	-0.0033185256
194	0xbd0a02ef	-0.033694204
195	0xbd359e49	-0.044340406
196	0xbcdda3fd	-0.027055735
197	0x3c1eca0a	0.009691725
198	0x3d69be04	0.05706598
199	0x3c17569d	0.009236959
200	0xbc042787	-0.008066065
201	0x3ba0a685	0.004902663
202	0x3bd58dcd	0.006517148
203	0xbc8e04fc	-0.017336361
204	0xbd012022	-0.031524785
205	0xbcf3a95a	-0.029743839
206	0xbd7453ce	-0.059650235
207	0x3d7e0743	0.062018644
208	0xbbf3c942	-0.0074397633
209	0xbb8057a4	-0.0039166976
210	0xbc3e14f8	-0.011601679
211	0x3e350363	0.17677073
212	0xbc92f82b	-0.017940601
213	0xbc909490	-0.017648965
214	0xbc8a9349	-0.016915934
215	0xba1ccf16	-0.0005981786
216	0xbd0615ec	-0.03273575
217	0x3ba41eae	0.00500854
218	0x3cac1bfe	0.021009441
219	0x3d351dcb	0.044217866
220	0x3c9779bf	0.01849067
221	0xba7bb0b8	-0.0009601223
222	0x39c2ef9c	0.00037181086
223	0x3c1cbe49	0.009566852
224	0xbd37d6bb	-0.044882517
225	0xbc7a348a	-0.015271315
226	0x3d1536f3	0.036429357
227	0xbbceea04	-0.006314518
228	0xbbb40857	-0.0054941582
229	0xbda26763	-0.07929876
230	0xbd183cfe	-0.03716754
231	0xbceb19b7	-0.028698785
232	0xbb969966	-0.0045959232
233	0xbc5af920	-0.01336506
234	0x3b28a5d2	0.0025733602
235	0xbca08f39	-0.019599544
236	0x3c9386e8	0.018008664
237	0x3d6d7425	0.057972092
238	0xbc4f2b11	-0.012644545
239	0xbe71e855	-0.23623784
240	0xbd1ea7ca	-0.038734235
241	0xba8cff7c	-0.0010757293
242	0xbc10451b	-0.0088055385
243	0x3cc69fce	0.024246123
244	0x3c98e4af	0.018663732
245	0x3cf7be30	0.030242056
246	0xbd60ee64	-0.054914847
247	0x3b33cac6	0.0027434095
248	0x3c85ef0f	0.016349344
249	0xbc4a9e8e	-0.012366904
250	0x3aa3fbe2	0.001251098
251	0x3b3c447f	0.002872735
252	0xbbe9356c	-0.007116964
253	0xbae73503	-0.00176397
254	0xbb986882	-0.00465113
255	0x3c3ac043	0.011398378

bias f4 [256]
0	0xbd55c2cc	-0.052187726
1	0xbcc7613a	-0.024338353
2	0xbd7caa18	-0.06168565
3	0xbe004f61	-0.1253028
4	0xbdca926e	-0.098912105
5	0x3b678109	0.0035324714
6	0xbe217931	-0.15768887
7	0xbd8796ad	-0.06620536
8	0xbdaedab0	-0.08537805
9	0xbd8a0df9	-0.06740946
10	0x3d36072e	0.04444044
11	0x3c3f9f92	0.011695759
12	0xbdbaa850	-0.09114134
13	0x3e1588f0	0.14603019
14	0xbda62810	-0.0811311
15	0xbd7428ac	-0.0596091
16	0x3c461cbf	0.012091815
17	0x3d635fe4	0.05551137
18	0xbd7e2f8b	-0.06205706
19	0xbc35c49d	-0.01109424
20	0xbd055a9f	-0.032557126
21	0xbe4db8cb	-0.20090024
22	0xbe5ca933	-0.2154892
23	0x3d096e51	0.03355247
24	0x3d05bc4b	0.032650273
25	0x3c268953	0.010164577
26	0xbdaf72fe	-0.08566855
27	0xbc4661cc	-0.0121082775
28	0xbd16655c	-0.036717758
29	0xbdc814d6	-0.09769599
30	0x3c75062c	0.014955085
31	0xbd197c6b	-0.03747217
32	0x3da19d70	0.07891357
33	0xbc73212d	-0.014839453
34	0x3cfe0935	0.03101025
35	0xbc9b16f1	-0.018931838
36	0xbe3ab4b5	-0.18232997
37	0xbdec04d5	-0.11524359
38	0xbe0c7aab	-0.13718669
39	0x3be4036d	0.006958416
40	0xbccce6ef	-0.025012461
41	0xbd852726	-0.065016076
42	0xbc6cc4f5	-0.014451255
43	0xbe22a8f7	-0.15884767
44	0xbd33e595	-0.04392012
45	0xbe7a4fc5	-0.24444492
46	0x3dbc7fb8	0.09204048
47	0xbca09fd6	-0.019607466
48	0xbe7bbac3	-0.24582963
49	0xbdd1d9c4	-0.102466136
50	0x3d8ad47b	0.06778809
51	0xbcf1e40d	-0.029527688
52	0x3cdc8880	0.026920557
53	0xbcfe9217	-0.03107552
54	0xbdab961b	-0.0837824
55	0xbcd93526	-0.026514601
56	0xbe8e4535	-0.27787176
57	0xbd19f6ec	-0.037589
58	0xbd24d606	-0.04024317
59	0xbd662199	-0.056184385
60	0xbc71fd4a	-0.0147698615
61	0xbd2efbc8	-0.042720586
62	0xbe137414	-0.14399749
63	0xbe0ac83a	-0.13552943
64	0xbc2ef4c8	-0.010678478
65	0x3d590630	0.052984416
66	0xbb135477	-0.0022480765
67	0xbd7a1840	-0.061058283
68	0xbb936591	-0.0044981916
69	0xbbd5a61c	-0.006520046
70	0xbd6afdb4	-0.057370856
71	0xbd217315	-0.03941639
72	0xbda9b744	-0.08286908
73	0x3d2e813d	0.04260372
74	0xbd8215e7	-0.06351834
75	0xba8a6a01	-0.0010560156
76	0x3c9a44f3	0.018831706
77	0x3d8ae3c5	0.06781725
78	0xbdadc5d5	-0.08484999
79	0xbdbf9af3	-0.09355726
80	0xbd933932	-0.071886435
81	0xbd4ad547	-0.049519803
82	0xbe16a47e	-0.14711186
83	0x3c31a890	0.010843411
84	0x3d907e71	0.07055367
85	0xbdd1662b	-0.10224565
86	0xbd365387	-0.04451325
87	0xbc969b6b	-0.018384656
88	0xbd686c75	-0.056744058
89	0xbe2eaaa1	-0.17057277
90	0xbd123bc2	-0.03570152
91	0xbd4e938b	-0.050433677
92	0xbd8e299d	-0.06941531
93	0xbd069b06	-0.032862686
94	0xbbff57f6	-0.007792468
95	0xbe0c8ef4	-0.13726407
96	0xbd79fde6	-0.061033152
97	0xbd93821d	-0.072025515
98	0xbd5896fe	-0.052878372
99	0xbd87e812	-0.06636061
100	0xbdfb5071	-0.12271202
101	0xbc2af922	-0.010435374
102	0xbc462992	-0.012094872
103	0xbd70586c	-0.058678076
104	0xbe0fce0d	-0.14043446
105	0xbb54591a	-0.0032401741
106	0x3d5a9519	0.053364847
107	0xbe150838	-0.14553916
108	0xbd7e6ebb	-0.06211732
109	0xbd965042	-0.07339527
110	0xbd8f58be	-0.06999348
111	0x3cb5748f	0.022150306
112	0xbdcf1b9c	-0.10112688
113	0x3d0bfec1	0.0341785
114	0xbd3b8456	-0.045780502
115	0xbdeb4d90	-0.11489403
116	0xbd49b4f2	-0.04924483
117	0xbd8677a7	-0.065657906
118	0xbb80fc6a	-0.00393634
119	0xbd20e885	-0.039284248
120	0xba917000	-0.0011096001
121	0xbd9c6e8c	-0.07638273
122	0xbce9c346	-0.028535496
123	0xba6b27a1	-0.0008970444
124	0xbd660335	-0.056155402
125	0x3d184217	0.037172403
126	0xbc8c0250	-0.017090946
127	0xbdfca949	-0.12336976
128	0xbdbbdc80	-0.091729164
129	0xbd864de5	-0.06557826
130	0xbde7dfe4	-0.113220006
131	0xbd36d9c6	-0.04464128
132	0xbdc14186	-0.09436326
133	0xbde6cfa5	-0.11270074
134	0xbd5aa12b	-0.053376358
135	0xbda55eb1	-0.080747016
136	0xbdfb063b	-0.12257048
137	0xbdd6c94e	-0.104876146
138	0xbc2a37b4	-0.010389257
139	0xbd6cfe86	-0.05785992
140	0xbe5d2202	-0.21595004
141	0xbc29ea5f	-0.01037082
142	0xbd88d209	-0.06680686
143	0xbd6c5f55	-0.057708103
144	0xbd93a5cd	-0.07209358
145	0xbd11e3c2	-0.035617597
146	0x3cba1b7c	0.022718184
147	0xbdd00195	-0.10156552
148	0xb908d720	-0.00013050111
149	0xbe0cb65f	-0.13741444
150	0xbcd17d3d	-0.025572414
151	0xbd432a98	-0.047648042
152	0xbdbd9987	-0.09257799
153	0xbdd3f6cc	-0.10349807
154	0xbd7fb2cf	-0.062426385
155	0x3d2ea88c	0.042641208
156	0xbd0405d4	-0.03223212
157	0x3cfe0f4a	0.03101315
158	0xbc37e19a	-0.011223221
159	0xbe23c0ad	-0.15991469
160	0x3c85768b	0.016291877
161	0xbde9b792	-0.114119664
162	0xbd269f58	-0.040679306
163	0xbe013cd2	-0.12620857
164	0xbde79b4d	-0.11308918
165	0xbd9bb6c9	-0.07603223
166	0xbc005b54	-0.007834274
167	0x3c924873	0.017856812
168	0xbdc552ff	-0.09634971
169	0xbd84f8a2	-0.064927354
170	0x3a879198	0.0010343073
171	0xbe252257	-0.16126381
172	0xbdd8a684	-0.10578635
173	0xbd2d6c1a	-0.04233942
174	0xbd426e52	-0.04746849
175	0xbd4326a8	-0.047644287
176	0xbdadc5fc	-0.08485028
177	0xbe29890a	-0.16556183
178	0x3d1bdbed	0.038051534
179	0xbda52321	-0.08063341
180	0x3ced38b3	0.0289577
181	0xbd88b3b3	-0.066749
182	0xbdc6ee08	-0.097133696
183	0xbd925747	-0.07145553
184	0xbd476da8	-0.04868856
185	0x3cbbfa67	0.02294655
186	0xbe209c56	-0.15684637
187	0xbc3d0560	-0.011536926
188	0xbb227425	-0.0024788466
189	0xbdac15c3	-0.08402588
190	0x3c419b75	0.011816849
191	0xbd4be616	-0.049779974
192	0xbd8c1a66	-0.068409726
193	0xbdfefaf8	-0.12450212
194	0xbdf1d139	-0.11807484
195	0xbe046aeb	-0.12931411
196	0xbd3096d1	-0.04311258
197	0xbe105e01	-0.1409836
198	0x3c88ceb4	0.016700126
199	0x3cc79e8e	0.024367597
200	0xbb8d593a	-0.004313615
201	0xbd495888	-0.049156696
202	0xbdfac96a	-0.12245448
203	0xbb9a2407	-0.004704002
204	0xbb8efa04	-0.0043633003
205	0xbdf2bf0b	-0.11852845
206	0xbda6623e	-0.08124207
207	0x3bff7aba	0.0077966126
208	0x3d47d37f	0.048785683
209	0xbdca394b	-0.09874209
210	0x3d0ebe0b	0.034849208
211	0xbde22aa7	-0.110432915
212	0xbd75e33e	-0.06003117
213	0xbe1bd6bd	-0.15218635
214	0x3e1d8c9e	0.15385672
215	0x3d873386	0.06601624
216	0xbc84eb73	-0.016225552
217	0xbd6e7164	-0.058213606
218	0xbda0c3cd	-0.07849846
219	0xbdbb1d7f	-0.09136485
220	0xbca646bb	-0.020297399
221	0xbc55a497	-0.01303973
222	0xbdffc5d6	-0.12488906
223	0xbd94bf5f	-0.07263064
224	0xbd2834ca	-0.04106597
225	0xbcd4852c	-0.025942408
226	0xbdd8d4a2	-0.105874315
227	0xbe21cc2a	-0.15800539
228	0xbd88c80a	-0.066787794
229	0xbe1593de	-0.14607188
230	0xbd9bfe89	-0.07616908
231	0xbd917b81	-0.071036346
232	0xbcfc8434	-0.030824758
233	0xbda06f6d	-0.07833753
234	0xbe290296	-0.16504893
235	0xbdf0143c	-0.117226094
236	0xbd1ee48c	-0.038792178
237	0xbdf663fc	-0.12030789
238	0xbd29d010	-0.04145819
239	0xbd5f0153	-0.054444622
240	0xbde2c01a	-0.11071797
241	0xbd6757b1	-0.056480113
242	0xbd21758a	-0.039418735
243	0xbe5441fe	-0.20728299
244	0xbde8a101	-0.11358834
245	0xbd99ef69	-0.07516367
246	0xbe16da38	-0.14731681
247	0xbdde14fd	-0.10843847
248	0xbd48c064	-0.049011603
249	0xbd7a0713	-0.061041903
250	0x3cbc42d1	0.02298108
251	0x3c145563	0.009053561
252	0xbd1dc4e3	-0.038517844
253	0xbe05aa23	-0.13053183
254	0x3d4ffa2d	0.050775696
255	0xbdd0f031	-0.10202063

weight f4 [128, 256]
0	0x3d896716	0.06709115
1	0x3ce4b8e9	0.027920203
2	0xbdb79f16	-0.0896589
3	0x3dc01dd0	0.09380686
4	0xbbd4d031	-0.006494545
5	0xbca5e193	-0.020249164
6	0xbdb5eb7c	-0.08882806
7	0xbd0f84b5	-0.03503867
8	0xbd104b63	-0.035228144
9	0xbd080c20	-0.03321469
10	0xbc8f4a56	-0.0174915
11	0xbcf537c3	-0.029933816
12	0xbd175828	-0.036949307
13	0xbc7fb030	-0.015605971
14	0x3c8776d7	0.01653616
15	0xbc37d8ab	-0.011221091
16	0xbd5b82aa	-0.053591408
17	0x3db2bb98	0.08727187
18	0xbbdc3522	-0.006720201
19	0x3d129586	0.035787128
20	0xb9d06395	-0.00039747046
21	0x3d60b474	0.054859594
22	0x3d65671d	0.05600654
23	0xbcffa4d2	-0.031206522
24	0xbc13ddcb	-0.0090250475
25	0xbceb9a7c	-0.028760187
26	0xbd0b7d6c	-0.03405516
27	0x3d804bb6	0.06264441
28	0x3b4bbac3	0.003108666
29	0xbc47f706	-0.012204891
30	0xbd4b3cfe	-0.049618714
31	0xbb6a3e9a	-0.003574288
32	0x3d42c961	0.04755533
33	0xbd1187ab	-0.035529774
34	0xbd420bb8	-0.047374457
35	0xbd93f329	-0.072241135
36	0xbd048f77	-0.03236338
37	0x3d9c8fa6	0.07644586
38	0x3c94fc5f	0.018186746
39	0xbd5ef89f	-0.054436322
40	0x3c131ff5	0.008979787
41	0xbce3b1a3	-0.027794665
42	0xbd060418	-0.032718748
43	0x3c7b22b6	0.0153281
44	0xbbb0157e	-0.005373656
45	0xbd624a73	-0.05524678
46	0xbc7dd969	-0.015493729
47	0x3bc6ab7c	0.006062923
48	0xbdcb0338	-0.09912723
49	0x3d2388e1	0.03992546
50	0xbd85322f	-0.065037124
51	0xbbc37438	-0.005964782
52	0x3c703e7b	0.014663334
53	0x3bfe9510	0.0077692345
54	0xbcd42f09	-0.025901334
55	0x3d2ce245	0.042207975
56	0xbd008bcc	-0.03138332
57	0xbe069e04	-0.13146216
58	0x3c8aaefb	0.01692914
59	0xbbdfa14d	-0.0068246485
60	0xbd2f204e	-0.042755418
61	0x3a0c66c2	0.0005355888
62	0xbd861988	-0.065478384
63	0x3bf6601b	0.007518781
64	0xbd0e2f24	-0.034712926
65	0x3d969f78	0.07354635
66	0xbc3c73b2	-0.011502193
67	0x3d54ecd5	0.051983673
68	0x3d6311a8	0.05543676
69	0x3b2399cd	0.0024963499
70	0xbbcd9f02	-0.0062750587
71	0x3b326c4d	0.0027225197
72	0xbd1b4249	-0.03790501
73	0xbd387944	-0.045037523
74	0xbca9cc79	-0.020727383
75	0x3b81a072	0.003955894
76	0x3bfa5b6a	0.007640292
77	0xbcd5aee1	-0.026084365
78	0xbd072dfd	-0.033002842
79	0xbc260f22	-0.010135444
80	0xbd185563	-0.037190806
81	0xbaca0b6b	-0.001541478
82	0xbd3bcee2	-0.045851596
83	0xbc8afe46	-0.01696695
84	0x3cea61f8	0.028611168
85	0xbd80ee52	-0.06295456
86	0x3d5361ce	0.051606946
87	0x3d8db8b4	0.06919995
88	0xbb2a2b93	-0.0025965914
89	0x3ca4e099	0.020126628
90	0x3d8fb1d4	0.0701634
91	0xbce37dad	-0.027769888
92	0x3b96690d	0.0045901597
93	0x3b7fb90b	0.0039020206
94	0x3d751733	0.059836578
95	0xbcc4d5d0	-0.024027735
96	0x3c1e60c1	0.009666623
97	0x3be50f76	0.0069903685
98	0x3ce070f6	0.027397614
99	0x3dab5086	0.08364968
100	0xbdc33a1e	-0.09532569
101	0x3cdabc1d	0.026701028
102	0xbc837b8f	-0.016050128
103	0x3cebe883	0.028797394
104	0xbd76cb85	-0.060252685
105	0xbcdd16f5	-0.026988486
106	0x3b3e2630	0.002901446
107	0xbd0554a4	-0.032551423
108	0xb80a4648	-3.296722e-05
109	0x3b89a72f	0.004200838
110	0xbd18ddb7	-0.03732082
111	0x3bd86e73	0.0066049634
112	0xbdd9b4bb	-0.10630175
113	0xba545b6c	-0.0008100781
114	0xbd547d9a	-0.051877595
115	0xbc85e8b8	-0.01634632
116	0xbc3d38cf	-0.011549189
117	0x3d126a28	0.03574577
118	0x3c3f6007	0.01168061
119	0xbd2486da	-0.040167667
120	0x3c4c5483	0.012471321
121	0xbd503d16	-0.050839506
122	0xbcdab2ec	-0.026696645
123	0x3abab051	0.001424322
124	0xbb33b7e0	-0.002742283
125	0x3a59d1c4	0.00083091506
126	0xbd50b03e	-0.050949328
127	0xbc9f3485	-0.019434223
128	0xbc273a9b	-0.010206844
129	0x3ceff7d2	0.029292975
130	0xbc144233	-0.009048986
131	0x3c4632e8	0.012097098
132	0xbd0ac8e1	-0.03388298
133	0xbcdaa80b	-0.026691457
134	0x3d4aaad0	0.049479306
135	0xbd3727b9	-0.044715617
136	0x3da197bb	0.078902684
137	0x3d01c3c0	0.031680822
138	0xbdf50543	-0.11963894
139	0x3a89c75d	0.0010511685
140	0xbd97c093	-0.074097775
141	0x3b960dd3	0.0045792847
142	0x3c9c6d26	0.019095015
143	0xbd4ae958	-0.04953894
144	0x3c409579	0.011754387
145	0x3d0d195e	0.03444802
146	0x3d677f84	0.056518093
147	0xbca4e1a8	-0.020127133
148	0x3cb46608	0.022021309
149	0xbd751f45	-0.059844274
150	0xbc7f0981	-0.015566231
151	0xbd53b707	-0.05168822
152	0xba49a556	-0.00076921785
153	0x3b44b56b	0.003001536
154	0xbb596d19	-0.00331766
155	0xbccc26a5	-0.02492077
156	0x3ccff29e	0.025384244
157	0x3d416b36	0.047221385
158	0x3cee27b1	0.02907166
159	0x3d2d382f	0.04228991
160	0x3d1856bd	0.037192095
161	0xbc66f3f3	-0.014096248
162	0xbd6ca816	-0.057777487
163	0xbc84b003	-0.01619721
164	0xbd98338f	-0.07431709
165	0xbbbd96da	-0.005785805
166	0x3da00e3b	0.07815214
167	0xbb897bed	-0.0041956813
168	0xbda060d5	-0.07830969
169	0xbd2a8a3b	-0.041635733
170	0x3ddd7a5e	0.10814355
171	0x3b8d2d96	0.004308413
172	0xbc0a59d3	-0.008444267
173	0x3dd18baa	0.10231717
174	0xbc40650d	-0.011742842
175	0x3d3b94d4	0.04579623
176	0xbd0636a0	-0.03276694
177	0x3d5a9996	0.053369127
178	0xbc7a1b68	-0.015265323
179	0xbdc6b3e4	-0.0970228
180	0xbd5bac2e	-0.053631
181	0x3d19dbb8	0.037563056
182	0x3befb83e	0.0073156646
183	0xbbb3e78f	-0.0054902504
184	0xbca84deb	-0.020544967
185	0xbd3d8833	-0.046272468
186	0xbb9fc844	-0.0048761684
187	0xbddda933	-0.10823288
188	0xbbeb694f	-0.0071841846
189	0xbc8cfa83	-0.017209297
190	0x3b672f1d	0.0035275884
191	0xbd6cc24c	-0.057802483
192	0xbcb02e56	-0.02150647
193	0xbc927f2d	-0.017882908
194	0x3c047f33	0.008086967
195	0xbd8537bd	-0.06504772
196	0x3b241b8a	0.0025040829
197	0x3ba36516	0.0049864156
198	0x3ca0ce7e	0.019629713
199	0xbd6f020c	-0.05835156
200	0xbd2b8bba	-0.0418813
201	0xbc0273b4	-0.007962156
202	0xbc14da48	-0.009085245
203	0xbb4d5316	-0.003133004
204	0xbd3b1513	-0.045674395
205	0xbd36acff	-0.044598576
206	0xbd08b85c	-0.033378944
207	0xbd26c9fb	-0.040719967
208	0xbce4fadd	-0.027951652
209	0xbc55bb22	-0.013045104
210	0xbd9349cc	-0.0719181
211	0x3d2a9da8	0.04165426
212	0xbd4449b3	-0.047921848
213	0x3c8e9402	0.01740456
214	0x3ca9700c	0.02068331
215	0x3c8b857b	0.017031422
216	0x3d0446a9	0.03229395
217	0xbc5b8712	-0.0133989025
218	0x3d57a7c8	0.052650243
219	0x3d152693	0.03641374
220	0x3cb1412b	0.02163752
221	0x3de5d953	0.11223092
222	0xbaa735d9	-0.0012757137
223	0x3c3b060e	0.011415018
224	0x3ab6757c	0.0013920511
225	0x3cc1d5c5	0.023661504
226	0xbd0622ed	-0.03274815
227	0x3baaead6	0.005215983
228	0xbcaef43a	-0.02135669
229	0xbd8949dc	-0.06703541
230	0xbd9c89c7	-0.076434664
231	0x3cdf619c	0.027268223
232	0xbc079a30	-0.008276507
233	0xbd941f1d	-0.07232497
234	0x3c536f8f	0.012905016
235	0x3c5394e7	0.012913919
236	0x3d0c1ebe	0.034209006
237	0xbd1b97fd	-0.037986744
238	0x3d2842e1	0.041079406
239	0x3c908c7e	0.017645117
240	0xbd583e29	-0.052793656
241	0xbb58bf3a	-0.0033072964
242	0xbc430d0a	-0.011904964
243	0x3cfa197f	0.030529736
244	0xbd2eb668	-0.042654425
245	0x3caec46b	0.021333894
246	0x3c0c90c9	0.008579441
247	0x3cf800dc	0.030273847
248	0xbca231fe	-0.019799229
249	0xbd78d4a3	-0.06074966
250	0xba291bec	-0.0006450999
251	0x3cf0a4f9	0.02937554
252	0xbdbe3fd4	-0.09289518
253	0x3cd6d2fd	0.026223654
254	0xbc3329bd	-0.010935244
255	0xbc000579	-0.007813805

bias f4 [128]
0	0xbd8ebd2d	-0.06969676
1	0xbdfe4b61	-0.12416721
2	0xbda106d8	-0.078626335
3	0xbd656840	-0.056007624
4	0xbbb3c911	-0.0054866155
5	0xbd1436a6	-0.03618493
6	0x399990e0	0.00029290374
7	0xbd23b539	-0.03996775
8	0xbdeb5f97	-0.11492842
9	0xbd3bd7df	-0.045860168
10	0xbd0f5245	-0.034990568
11	0x3c154d6d	0.009112698
12	0xbd83e6f7	-0.064405374
13	0xbc77ced2	-0.015124993
14	0xbd86b18b	-0.065768324
15	0xbd024856	-0.031807266
16	0xbe08001d	-0.13281293
17	0xbd6a2621	-0.05716527
18	0xbd2027a4	-0.039100304
19	0x3d477eb1	0.048704807
20	0xbd864ecc	-0.06557998
21	0xbdfe35f5	-0.12412635
22	0xbdbcf68b	-0.09226712
23	0xbe072ab3	-0.13199882
24	0xbdf646f5	-0.12025253
25	0xbb937ccc	-0.004500961
26	0xbc976f9f	-0.018485842
27	0x3c9ab290	0.018883973
28	0xbd88d725	-0.066816606
29	0xbd688e05	-0.056776065
30	0xbdc997e1	-0.09843422
31	0xbdcf76f7	-0.101301126
32	0xbda6ac9e	-0.08138393
33	0xbce3f62e	-0.027827349
34	0xbcff91f3	-0.031197524
35	0xbd0c2f2f	-0.034224685
36	0xbc720b4b	-0.0147732
37	0xbb21f300	-0.002471149
38	0xbceccb07	-0.028905405
39	0xbc94370d	-0.018092657
40	0xbc5b651f	-0.013390808
41	0xbb3e3787	-0.0029024796
42	0xbd99bf6a	-0.075072125
43	0xbd1223b6	-0.035678588
44	0xbbf553d4	-0.0074867997
45	0xbda0a176	-0.07843296
46	0xbcdd8537	-0.02704106
47	0xbdf0e844	-0.11763051
48	0x3b28cfbd	0.0025758587
49	0xbdccc54f	-0.09998571
50	0xbc943370	-0.018090934
51	0xbdc6e436	-0.097114965
52	0xbdab0cf7	-0.08352082
53	0xbd632271	-0.055452768
54	0xbdd03689	-0.10166652
55	0xbd7f7ca1	-0.062374715
56	0x3c5a5a57	0.013327203
57	0xbcce58b9	-0.02518879
58	0xbe0cd4f1	-0.13753106
59	0xbdc4f478	-0.09616941
60	0xbdb9a063	-0.090637945
61	0x3b3333cc	0.0027344106
62	0xbdc368d6	-0.0954148
63	0xbe077ea6	-0.13231906
64	0xbdbd362c	-0.09238848
65	0xbdf0a2f4	-0.11749831
66	0xbce3c290	-0.027802736
67	0xbdcbbc49	-0.09948022
68	0xbde76c00	-0.11299896
69	0xbd24007b	-0.04003952
70	0xbc373ab2	-0.011183428
71	0xbe3c1469	-0.18367161
72	0xbcd49d6c	-0.02595397
73	0xbdbae524	-0.09125736
74	0xbd04f36e	-0.032458715
75	0xbd2a9a66	-0.041651152
76	0xbd8783f0	-0.06616962
77	0xbdcfcac8	-0.10146099
78	0xbc961acc	-0.018323325
79	0xbddf2e26	-0.10897474
80	0xbd271c26	-0.04079833
81	0xbe34cffa	-0.17657462
82	0xbd5c00b9	-0.053711627
83	0xbe122988	-0.14273655
84	0xbdc27137	-0.0949425
85	0xbe83ba99	-0.257283
86	0xbe0caff7	-0.13739
87	0xbdad2d7c	-0.08455941
88	0xbdd1450a	-0.10218246
89	0xbca9e866	-0.020740699
90	0xbd9c4a9c	-0.07631418
91	0xbd3e0b57	-0.046397533
92	0xbddf8e53	-0.10915818
93	0xbe06e3bf	-0.13172816
94	0xbdad41e6	-0.08459835
95	0xbd98468f	-0.07435333
96	0xbe54693f	-0.20743273
97	0x3c9fe00c	0.019516014
98	0xbdada6b2	-0.0847906
99	0xbe3bb912	-0.18332317
100	0xbb602fb4	-0.003420812
101	0xbddfec30	-0.10933721
102	0xbd8fb4d9	-0.07016916
103	0xbd3c35eb	-0.045949858
104	0xbe0780c3	-0.13232712
105	0x3c534cd2	0.012896733
106	0xbe01ac1b	-0.1266331
107	0xbddc3e1e	-0.107540354
108	0xbdc42915	-0.09578148
109	0x3bc3ee7d	0.0059793578
110	0x3d019587	0.03163674
111	0xbda97d63	-0.08275869
112	0xbdb394c9	-0.08768613
113	0xbda49669	-0.08036501
114	0xbdc82d8a	-0.09774311
115	0xbdb9d492	-0.09073748
116	0xbcd7729f	-0.026299773
117	0xbbf50397	-0.0074772346
118	0xbd9191ec	-0.071079105
119	0xbd60030e	-0.054690413
120	0xbd1d4094	-0.038391665
121	0xbd910fee	-0.070831165
122	0xbbce73ea	-0.006300439
123	0xbe4ff09a	-0.20306626
124	0xbe296236	-0.16541371
125	0x3c9861f7	0.0186014
126	0xbd8ef52d	-0.06980357
127	0xbde1c484	-0.110238105
